{"class_name": "Sequential", "config": {"name": "sequential_1", "layers": [{"class_name": "Model", "config": {"name": "efficientnet-b5", "layers": [{"name": "input_1", "class_name": "InputLayer", "config": {"batch_input_shape": [null, 456, 456, 3], "dtype": "float32", "sparse": false, "name": "input_1"}, "inbound_nodes": []}, {"name": "conv2d_1", "class_name": "Conv2D", "config": {"name": "conv2d_1", "trainable": true, "filters": 48, "kernel_size": [3, 3], "strides": [2, 2], "padding": "same", "data_format": "channels_last", "dilation_rate": [1, 1], "activation": "linear", "use_bias": false, "kernel_initializer": {"class_name": "EfficientConv2DKernelInitializer", "config": {}}, "bias_initializer": {"class_name": "Zeros", "config": {}}, "kernel_regularizer": null, "bias_regularizer": null, "activity_regularizer": null, "kernel_constraint": null, "bias_constraint": null}, "inbound_nodes": [[["input_1", 0, 0, {}]]]}, {"name": "group_normalization_1", "class_name": "GroupNormalization", "config": {"name": "group_normalization_1", "trainable": true, "groups": 32, "axis": -1, "epsilon": 1e-05, "center": true, "scale": true, "beta_initializer": {"class_name": "Zeros", "config": {}}, "gamma_initializer": {"class_name": "Ones", "config": {}}, "beta_regularizer": null, "gamma_regularizer": null, "beta_constraint": null, "gamma_constraint": null}, "inbound_nodes": []}, {"name": "swish_1", "class_name": "Swish", "config": {"name": "swish_1", "trainable": true}, "inbound_nodes": [[["batch_normalization_1", 0, 0, {}]]]}, {"name": "depthwise_conv2d_1", "class_name": "DepthwiseConv2D", "config": {"name": "depthwise_conv2d_1", "trainable": true, "kernel_size": [3, 3], "strides": [1, 1], "padding": "same", "data_format": "channels_last", "dilation_rate": [1, 1], "activation": "linear", "use_bias": false, "bias_initializer": {"class_name": "Zeros", "config": {}}, "bias_regularizer": null, "activity_regularizer": null, "bias_constraint": null, "depth_multiplier": 1, "depthwise_initializer": {"class_name": "EfficientConv2DKernelInitializer", "config": {}}, "depthwise_regularizer": null, "depthwise_constraint": null}, "inbound_nodes": [[["swish_1", 0, 0, {}]]]}, {"name": "group_normalization_2", "class_name": "GroupNormalization", "config": {"name": "group_normalization_2", "trainable": true, "groups": 32, "axis": -1, "epsilon": 1e-05, "center": true, "scale": true, "beta_initializer": {"class_name": "Zeros", "config": {}}, "gamma_initializer": {"class_name": "Ones", "config": {}}, "beta_regularizer": null, "gamma_regularizer": null, "beta_constraint": null, "gamma_constraint": null}, "inbound_nodes": []}, {"name": "swish_2", "class_name": "Swish", "config": {"name": "swish_2", "trainable": true}, "inbound_nodes": [[["batch_normalization_2", 0, 0, {}]]]}, {"name": "lambda_1", "class_name": "Lambda", "config": {"name": "lambda_1", "trainable": true, "function": ["4wEAAAAAAAAAAQAAAAUAAAATAAAAcxAAAAB0AGoBfACIAGQBZAKNA1MAKQNOVCkC2gRheGlz2ghr\nZWVwZGltcykC2gFL2gRtZWFuKQHaAWEpAdoMc3BhdGlhbF9kaW1zqQD6WC9rYWdnbGUvaW5wdXQv\nZWZmaWNpZW50bmV0L2VmZmljaWVudG5ldC1tYXN0ZXIvZWZmaWNpZW50bmV0LW1hc3Rlci9lZmZp\nY2llbnRuZXQvbW9kZWwucHnaCDxsYW1iZGE+XwAAAHMAAAAA\n", null, [[1, 2]]], "function_type": "lambda", "output_shape": null, "output_shape_type": "raw", "arguments": {}}, "inbound_nodes": [[["swish_2", 0, 0, {}]]]}, {"name": "conv2d_2", "class_name": "Conv2D", "config": {"name": "conv2d_2", "trainable": true, "filters": 12, "kernel_size": [1, 1], "strides": [1, 1], "padding": "same", "data_format": "channels_last", "dilation_rate": [1, 1], "activation": "linear", "use_bias": true, "kernel_initializer": {"class_name": "EfficientConv2DKernelInitializer", "config": {}}, "bias_initializer": {"class_name": "Zeros", "config": {}}, "kernel_regularizer": null, "bias_regularizer": null, "activity_regularizer": null, "kernel_constraint": null, "bias_constraint": null}, "inbound_nodes": [[["lambda_1", 0, 0, {}]]]}, {"name": "swish_3", "class_name": "Swish", "config": {"name": "swish_3", "trainable": true}, "inbound_nodes": [[["conv2d_2", 0, 0, {}]]]}, {"name": "conv2d_3", "class_name": "Conv2D", "config": {"name": "conv2d_3", "trainable": true, "filters": 48, "kernel_size": [1, 1], "strides": [1, 1], "padding": "same", "data_format": "channels_last", "dilation_rate": [1, 1], "activation": "linear", "use_bias": true, "kernel_initializer": {"class_name": "EfficientConv2DKernelInitializer", "config": {}}, "bias_initializer": {"class_name": "Zeros", "config": {}}, "kernel_regularizer": null, "bias_regularizer": null, "activity_regularizer": null, "kernel_constraint": null, "bias_constraint": null}, "inbound_nodes": [[["swish_3", 0, 0, {}]]]}, {"name": "activation_1", "class_name": "Activation", "config": {"name": "activation_1", "trainable": true, "activation": "sigmoid"}, "inbound_nodes": [[["conv2d_3", 0, 0, {}]]]}, {"name": "multiply_1", "class_name": "Multiply", "config": {"name": "multiply_1", "trainable": true}, "inbound_nodes": [[["activation_1", 0, 0, {}], ["swish_2", 0, 0, {}]]]}, {"name": "conv2d_4", "class_name": "Conv2D", "config": {"name": "conv2d_4", "trainable": true, "filters": 24, "kernel_size": [1, 1], "strides": [1, 1], "padding": "same", "data_format": "channels_last", "dilation_rate": [1, 1], "activation": "linear", "use_bias": false, "kernel_initializer": {"class_name": "EfficientConv2DKernelInitializer", "config": {}}, "bias_initializer": {"class_name": "Zeros", "config": {}}, "kernel_regularizer": null, "bias_regularizer": null, "activity_regularizer": null, "kernel_constraint": null, "bias_constraint": null}, "inbound_nodes": [[["multiply_1", 0, 0, {}]]]}, {"name": "group_normalization_3", "class_name": "GroupNormalization", "config": {"name": "group_normalization_3", "trainable": true, "groups": 32, "axis": -1, "epsilon": 1e-05, "center": true, "scale": true, "beta_initializer": {"class_name": "Zeros", "config": {}}, "gamma_initializer": {"class_name": "Ones", "config": {}}, "beta_regularizer": null, "gamma_regularizer": null, "beta_constraint": null, "gamma_constraint": null}, "inbound_nodes": []}, {"name": "depthwise_conv2d_2", "class_name": "DepthwiseConv2D", "config": {"name": "depthwise_conv2d_2", "trainable": true, "kernel_size": [3, 3], "strides": [1, 1], "padding": "same", "data_format": "channels_last", "dilation_rate": [1, 1], "activation": "linear", "use_bias": false, "bias_initializer": {"class_name": "Zeros", "config": {}}, "bias_regularizer": null, "activity_regularizer": null, "bias_constraint": null, "depth_multiplier": 1, "depthwise_initializer": {"class_name": "EfficientConv2DKernelInitializer", "config": {}}, "depthwise_regularizer": null, "depthwise_constraint": null}, "inbound_nodes": [[["batch_normalization_3", 0, 0, {}]]]}, {"name": "group_normalization_4", "class_name": "GroupNormalization", "config": {"name": "group_normalization_4", "trainable": true, "groups": 32, "axis": -1, "epsilon": 1e-05, "center": true, "scale": true, "beta_initializer": {"class_name": "Zeros", "config": {}}, "gamma_initializer": {"class_name": "Ones", "config": {}}, "beta_regularizer": null, "gamma_regularizer": null, "beta_constraint": null, "gamma_constraint": null}, "inbound_nodes": []}, {"name": "swish_4", "class_name": "Swish", "config": {"name": "swish_4", "trainable": true}, "inbound_nodes": [[["batch_normalization_4", 0, 0, {}]]]}, {"name": "lambda_2", "class_name": "Lambda", "config": {"name": "lambda_2", "trainable": true, "function": ["4wEAAAAAAAAAAQAAAAUAAAATAAAAcxAAAAB0AGoBfACIAGQBZAKNA1MAKQNOVCkC2gRheGlz2ghr\nZWVwZGltcykC2gFL2gRtZWFuKQHaAWEpAdoMc3BhdGlhbF9kaW1zqQD6WC9rYWdnbGUvaW5wdXQv\nZWZmaWNpZW50bmV0L2VmZmljaWVudG5ldC1tYXN0ZXIvZWZmaWNpZW50bmV0LW1hc3Rlci9lZmZp\nY2llbnRuZXQvbW9kZWwucHnaCDxsYW1iZGE+XwAAAHMAAAAA\n", null, [[1, 2]]], "function_type": "lambda", "output_shape": null, "output_shape_type": "raw", "arguments": {}}, "inbound_nodes": [[["swish_4", 0, 0, {}]]]}, {"name": "conv2d_5", "class_name": "Conv2D", "config": {"name": "conv2d_5", "trainable": true, "filters": 6, "kernel_size": [1, 1], "strides": [1, 1], "padding": "same", "data_format": "channels_last", "dilation_rate": [1, 1], "activation": "linear", "use_bias": true, "kernel_initializer": {"class_name": "EfficientConv2DKernelInitializer", "config": {}}, "bias_initializer": {"class_name": "Zeros", "config": {}}, "kernel_regularizer": null, "bias_regularizer": null, "activity_regularizer": null, "kernel_constraint": null, "bias_constraint": null}, "inbound_nodes": [[["lambda_2", 0, 0, {}]]]}, {"name": "swish_5", "class_name": "Swish", "config": {"name": "swish_5", "trainable": true}, "inbound_nodes": [[["conv2d_5", 0, 0, {}]]]}, {"name": "conv2d_6", "class_name": "Conv2D", "config": {"name": "conv2d_6", "trainable": true, "filters": 24, "kernel_size": [1, 1], "strides": [1, 1], "padding": "same", "data_format": "channels_last", "dilation_rate": [1, 1], "activation": "linear", "use_bias": true, "kernel_initializer": {"class_name": "EfficientConv2DKernelInitializer", "config": {}}, "bias_initializer": {"class_name": "Zeros", "config": {}}, "kernel_regularizer": null, "bias_regularizer": null, "activity_regularizer": null, "kernel_constraint": null, "bias_constraint": null}, "inbound_nodes": [[["swish_5", 0, 0, {}]]]}, {"name": "activation_2", "class_name": "Activation", "config": {"name": "activation_2", "trainable": true, "activation": "sigmoid"}, "inbound_nodes": [[["conv2d_6", 0, 0, {}]]]}, {"name": "multiply_2", "class_name": "Multiply", "config": {"name": "multiply_2", "trainable": true}, "inbound_nodes": [[["activation_2", 0, 0, {}], ["swish_4", 0, 0, {}]]]}, {"name": "conv2d_7", "class_name": "Conv2D", "config": {"name": "conv2d_7", "trainable": true, "filters": 24, "kernel_size": [1, 1], "strides": [1, 1], "padding": "same", "data_format": "channels_last", "dilation_rate": [1, 1], "activation": "linear", "use_bias": false, "kernel_initializer": {"class_name": "EfficientConv2DKernelInitializer", "config": {}}, "bias_initializer": {"class_name": "Zeros", "config": {}}, "kernel_regularizer": null, "bias_regularizer": null, "activity_regularizer": null, "kernel_constraint": null, "bias_constraint": null}, "inbound_nodes": [[["multiply_2", 0, 0, {}]]]}, {"name": "group_normalization_5", "class_name": "GroupNormalization", "config": {"name": "group_normalization_5", "trainable": true, "groups": 32, "axis": -1, "epsilon": 1e-05, "center": true, "scale": true, "beta_initializer": {"class_name": "Zeros", "config": {}}, "gamma_initializer": {"class_name": "Ones", "config": {}}, "beta_regularizer": null, "gamma_regularizer": null, "beta_constraint": null, "gamma_constraint": null}, "inbound_nodes": []}, {"name": "drop_connect_1", "class_name": "DropConnect", "config": {"name": "drop_connect_1", "trainable": true, "drop_connect_rate": 0.025}, "inbound_nodes": [[["batch_normalization_5", 0, 0, {}]]]}, {"name": "add_1", "class_name": "Add", "config": {"name": "add_1", "trainable": true}, "inbound_nodes": [[["drop_connect_1", 0, 0, {}], ["batch_normalization_3", 0, 0, {}]]]}, {"name": "depthwise_conv2d_3", "class_name": "DepthwiseConv2D", "config": {"name": "depthwise_conv2d_3", "trainable": true, "kernel_size": [3, 3], "strides": [1, 1], "padding": "same", "data_format": "channels_last", "dilation_rate": [1, 1], "activation": "linear", "use_bias": false, "bias_initializer": {"class_name": "Zeros", "config": {}}, "bias_regularizer": null, "activity_regularizer": null, "bias_constraint": null, "depth_multiplier": 1, "depthwise_initializer": {"class_name": "EfficientConv2DKernelInitializer", "config": {}}, "depthwise_regularizer": null, "depthwise_constraint": null}, "inbound_nodes": [[["add_1", 0, 0, {}]]]}, {"name": "group_normalization_6", "class_name": "GroupNormalization", "config": {"name": "group_normalization_6", "trainable": true, "groups": 32, "axis": -1, "epsilon": 1e-05, "center": true, "scale": true, "beta_initializer": {"class_name": "Zeros", "config": {}}, "gamma_initializer": {"class_name": "Ones", "config": {}}, "beta_regularizer": null, "gamma_regularizer": null, "beta_constraint": null, "gamma_constraint": null}, "inbound_nodes": []}, {"name": "swish_6", "class_name": "Swish", "config": {"name": "swish_6", "trainable": true}, "inbound_nodes": [[["batch_normalization_6", 0, 0, {}]]]}, {"name": "lambda_3", "class_name": "Lambda", "config": {"name": "lambda_3", "trainable": true, "function": ["4wEAAAAAAAAAAQAAAAUAAAATAAAAcxAAAAB0AGoBfACIAGQBZAKNA1MAKQNOVCkC2gRheGlz2ghr\nZWVwZGltcykC2gFL2gRtZWFuKQHaAWEpAdoMc3BhdGlhbF9kaW1zqQD6WC9rYWdnbGUvaW5wdXQv\nZWZmaWNpZW50bmV0L2VmZmljaWVudG5ldC1tYXN0ZXIvZWZmaWNpZW50bmV0LW1hc3Rlci9lZmZp\nY2llbnRuZXQvbW9kZWwucHnaCDxsYW1iZGE+XwAAAHMAAAAA\n", null, [[1, 2]]], "function_type": "lambda", "output_shape": null, "output_shape_type": "raw", "arguments": {}}, "inbound_nodes": [[["swish_6", 0, 0, {}]]]}, {"name": "conv2d_8", "class_name": "Conv2D", "config": {"name": "conv2d_8", "trainable": true, "filters": 6, "kernel_size": [1, 1], "strides": [1, 1], "padding": "same", "data_format": "channels_last", "dilation_rate": [1, 1], "activation": "linear", "use_bias": true, "kernel_initializer": {"class_name": "EfficientConv2DKernelInitializer", "config": {}}, "bias_initializer": {"class_name": "Zeros", "config": {}}, "kernel_regularizer": null, "bias_regularizer": null, "activity_regularizer": null, "kernel_constraint": null, "bias_constraint": null}, "inbound_nodes": [[["lambda_3", 0, 0, {}]]]}, {"name": "swish_7", "class_name": "Swish", "config": {"name": "swish_7", "trainable": true}, "inbound_nodes": [[["conv2d_8", 0, 0, {}]]]}, {"name": "conv2d_9", "class_name": "Conv2D", "config": {"name": "conv2d_9", "trainable": true, "filters": 24, "kernel_size": [1, 1], "strides": [1, 1], "padding": "same", "data_format": "channels_last", "dilation_rate": [1, 1], "activation": "linear", "use_bias": true, "kernel_initializer": {"class_name": "EfficientConv2DKernelInitializer", "config": {}}, "bias_initializer": {"class_name": "Zeros", "config": {}}, "kernel_regularizer": null, "bias_regularizer": null, "activity_regularizer": null, "kernel_constraint": null, "bias_constraint": null}, "inbound_nodes": [[["swish_7", 0, 0, {}]]]}, {"name": "activation_3", "class_name": "Activation", "config": {"name": "activation_3", "trainable": true, "activation": "sigmoid"}, "inbound_nodes": [[["conv2d_9", 0, 0, {}]]]}, {"name": "multiply_3", "class_name": "Multiply", "config": {"name": "multiply_3", "trainable": true}, "inbound_nodes": [[["activation_3", 0, 0, {}], ["swish_6", 0, 0, {}]]]}, {"name": "conv2d_10", "class_name": "Conv2D", "config": {"name": "conv2d_10", "trainable": true, "filters": 24, "kernel_size": [1, 1], "strides": [1, 1], "padding": "same", "data_format": "channels_last", "dilation_rate": [1, 1], "activation": "linear", "use_bias": false, "kernel_initializer": {"class_name": "EfficientConv2DKernelInitializer", "config": {}}, "bias_initializer": {"class_name": "Zeros", "config": {}}, "kernel_regularizer": null, "bias_regularizer": null, "activity_regularizer": null, "kernel_constraint": null, "bias_constraint": null}, "inbound_nodes": [[["multiply_3", 0, 0, {}]]]}, {"name": "group_normalization_7", "class_name": "GroupNormalization", "config": {"name": "group_normalization_7", "trainable": true, "groups": 32, "axis": -1, "epsilon": 1e-05, "center": true, "scale": true, "beta_initializer": {"class_name": "Zeros", "config": {}}, "gamma_initializer": {"class_name": "Ones", "config": {}}, "beta_regularizer": null, "gamma_regularizer": null, "beta_constraint": null, "gamma_constraint": null}, "inbound_nodes": []}, {"name": "drop_connect_2", "class_name": "DropConnect", "config": {"name": "drop_connect_2", "trainable": true, "drop_connect_rate": 0.037500000000000006}, "inbound_nodes": [[["batch_normalization_7", 0, 0, {}]]]}, {"name": "add_2", "class_name": "Add", "config": {"name": "add_2", "trainable": true}, "inbound_nodes": [[["drop_connect_2", 0, 0, {}], ["add_1", 0, 0, {}]]]}, {"name": "conv2d_11", "class_name": "Conv2D", "config": {"name": "conv2d_11", "trainable": true, "filters": 144, "kernel_size": [1, 1], "strides": [1, 1], "padding": "same", "data_format": "channels_last", "dilation_rate": [1, 1], "activation": "linear", "use_bias": false, "kernel_initializer": {"class_name": "EfficientConv2DKernelInitializer", "config": {}}, "bias_initializer": {"class_name": "Zeros", "config": {}}, "kernel_regularizer": null, "bias_regularizer": null, "activity_regularizer": null, "kernel_constraint": null, "bias_constraint": null}, "inbound_nodes": [[["add_2", 0, 0, {}]]]}, {"name": "group_normalization_8", "class_name": "GroupNormalization", "config": {"name": "group_normalization_8", "trainable": true, "groups": 32, "axis": -1, "epsilon": 1e-05, "center": true, "scale": true, "beta_initializer": {"class_name": "Zeros", "config": {}}, "gamma_initializer": {"class_name": "Ones", "config": {}}, "beta_regularizer": null, "gamma_regularizer": null, "beta_constraint": null, "gamma_constraint": null}, "inbound_nodes": []}, {"name": "swish_8", "class_name": "Swish", "config": {"name": "swish_8", "trainable": true}, "inbound_nodes": [[["batch_normalization_8", 0, 0, {}]]]}, {"name": "depthwise_conv2d_4", "class_name": "DepthwiseConv2D", "config": {"name": "depthwise_conv2d_4", "trainable": true, "kernel_size": [3, 3], "strides": [2, 2], "padding": "same", "data_format": "channels_last", "dilation_rate": [1, 1], "activation": "linear", "use_bias": false, "bias_initializer": {"class_name": "Zeros", "config": {}}, "bias_regularizer": null, "activity_regularizer": null, "bias_constraint": null, "depth_multiplier": 1, "depthwise_initializer": {"class_name": "EfficientConv2DKernelInitializer", "config": {}}, "depthwise_regularizer": null, "depthwise_constraint": null}, "inbound_nodes": [[["swish_8", 0, 0, {}]]]}, {"name": "group_normalization_9", "class_name": "GroupNormalization", "config": {"name": "group_normalization_9", "trainable": true, "groups": 32, "axis": -1, "epsilon": 1e-05, "center": true, "scale": true, "beta_initializer": {"class_name": "Zeros", "config": {}}, "gamma_initializer": {"class_name": "Ones", "config": {}}, "beta_regularizer": null, "gamma_regularizer": null, "beta_constraint": null, "gamma_constraint": null}, "inbound_nodes": []}, {"name": "swish_9", "class_name": "Swish", "config": {"name": "swish_9", "trainable": true}, "inbound_nodes": [[["batch_normalization_9", 0, 0, {}]]]}, {"name": "lambda_4", "class_name": "Lambda", "config": {"name": "lambda_4", "trainable": true, "function": ["4wEAAAAAAAAAAQAAAAUAAAATAAAAcxAAAAB0AGoBfACIAGQBZAKNA1MAKQNOVCkC2gRheGlz2ghr\nZWVwZGltcykC2gFL2gRtZWFuKQHaAWEpAdoMc3BhdGlhbF9kaW1zqQD6WC9rYWdnbGUvaW5wdXQv\nZWZmaWNpZW50bmV0L2VmZmljaWVudG5ldC1tYXN0ZXIvZWZmaWNpZW50bmV0LW1hc3Rlci9lZmZp\nY2llbnRuZXQvbW9kZWwucHnaCDxsYW1iZGE+XwAAAHMAAAAA\n", null, [[1, 2]]], "function_type": "lambda", "output_shape": null, "output_shape_type": "raw", "arguments": {}}, "inbound_nodes": [[["swish_9", 0, 0, {}]]]}, {"name": "conv2d_12", "class_name": "Conv2D", "config": {"name": "conv2d_12", "trainable": true, "filters": 6, "kernel_size": [1, 1], "strides": [1, 1], "padding": "same", "data_format": "channels_last", "dilation_rate": [1, 1], "activation": "linear", "use_bias": true, "kernel_initializer": {"class_name": "EfficientConv2DKernelInitializer", "config": {}}, "bias_initializer": {"class_name": "Zeros", "config": {}}, "kernel_regularizer": null, "bias_regularizer": null, "activity_regularizer": null, "kernel_constraint": null, "bias_constraint": null}, "inbound_nodes": [[["lambda_4", 0, 0, {}]]]}, {"name": "swish_10", "class_name": "Swish", "config": {"name": "swish_10", "trainable": true}, "inbound_nodes": [[["conv2d_12", 0, 0, {}]]]}, {"name": "conv2d_13", "class_name": "Conv2D", "config": {"name": "conv2d_13", "trainable": true, "filters": 144, "kernel_size": [1, 1], "strides": [1, 1], "padding": "same", "data_format": "channels_last", "dilation_rate": [1, 1], "activation": "linear", "use_bias": true, "kernel_initializer": {"class_name": "EfficientConv2DKernelInitializer", "config": {}}, "bias_initializer": {"class_name": "Zeros", "config": {}}, "kernel_regularizer": null, "bias_regularizer": null, "activity_regularizer": null, "kernel_constraint": null, "bias_constraint": null}, "inbound_nodes": [[["swish_10", 0, 0, {}]]]}, {"name": "activation_4", "class_name": "Activation", "config": {"name": "activation_4", "trainable": true, "activation": "sigmoid"}, "inbound_nodes": [[["conv2d_13", 0, 0, {}]]]}, {"name": "multiply_4", "class_name": "Multiply", "config": {"name": "multiply_4", "trainable": true}, "inbound_nodes": [[["activation_4", 0, 0, {}], ["swish_9", 0, 0, {}]]]}, {"name": "conv2d_14", "class_name": "Conv2D", "config": {"name": "conv2d_14", "trainable": true, "filters": 40, "kernel_size": [1, 1], "strides": [1, 1], "padding": "same", "data_format": "channels_last", "dilation_rate": [1, 1], "activation": "linear", "use_bias": false, "kernel_initializer": {"class_name": "EfficientConv2DKernelInitializer", "config": {}}, "bias_initializer": {"class_name": "Zeros", "config": {}}, "kernel_regularizer": null, "bias_regularizer": null, "activity_regularizer": null, "kernel_constraint": null, "bias_constraint": null}, "inbound_nodes": [[["multiply_4", 0, 0, {}]]]}, {"name": "group_normalization_10", "class_name": "GroupNormalization", "config": {"name": "group_normalization_10", "trainable": true, "groups": 32, "axis": -1, "epsilon": 1e-05, "center": true, "scale": true, "beta_initializer": {"class_name": "Zeros", "config": {}}, "gamma_initializer": {"class_name": "Ones", "config": {}}, "beta_regularizer": null, "gamma_regularizer": null, "beta_constraint": null, "gamma_constraint": null}, "inbound_nodes": []}, {"name": "conv2d_15", "class_name": "Conv2D", "config": {"name": "conv2d_15", "trainable": true, "filters": 240, "kernel_size": [1, 1], "strides": [1, 1], "padding": "same", "data_format": "channels_last", "dilation_rate": [1, 1], "activation": "linear", "use_bias": false, "kernel_initializer": {"class_name": "EfficientConv2DKernelInitializer", "config": {}}, "bias_initializer": {"class_name": "Zeros", "config": {}}, "kernel_regularizer": null, "bias_regularizer": null, "activity_regularizer": null, "kernel_constraint": null, "bias_constraint": null}, "inbound_nodes": [[["batch_normalization_10", 0, 0, {}]]]}, {"name": "group_normalization_11", "class_name": "GroupNormalization", "config": {"name": "group_normalization_11", "trainable": true, "groups": 32, "axis": -1, "epsilon": 1e-05, "center": true, "scale": true, "beta_initializer": {"class_name": "Zeros", "config": {}}, "gamma_initializer": {"class_name": "Ones", "config": {}}, "beta_regularizer": null, "gamma_regularizer": null, "beta_constraint": null, "gamma_constraint": null}, "inbound_nodes": []}, {"name": "swish_11", "class_name": "Swish", "config": {"name": "swish_11", "trainable": true}, "inbound_nodes": [[["batch_normalization_11", 0, 0, {}]]]}, {"name": "depthwise_conv2d_5", "class_name": "DepthwiseConv2D", "config": {"name": "depthwise_conv2d_5", "trainable": true, "kernel_size": [3, 3], "strides": [1, 1], "padding": "same", "data_format": "channels_last", "dilation_rate": [1, 1], "activation": "linear", "use_bias": false, "bias_initializer": {"class_name": "Zeros", "config": {}}, "bias_regularizer": null, "activity_regularizer": null, "bias_constraint": null, "depth_multiplier": 1, "depthwise_initializer": {"class_name": "EfficientConv2DKernelInitializer", "config": {}}, "depthwise_regularizer": null, "depthwise_constraint": null}, "inbound_nodes": [[["swish_11", 0, 0, {}]]]}, {"name": "group_normalization_12", "class_name": "GroupNormalization", "config": {"name": "group_normalization_12", "trainable": true, "groups": 32, "axis": -1, "epsilon": 1e-05, "center": true, "scale": true, "beta_initializer": {"class_name": "Zeros", "config": {}}, "gamma_initializer": {"class_name": "Ones", "config": {}}, "beta_regularizer": null, "gamma_regularizer": null, "beta_constraint": null, "gamma_constraint": null}, "inbound_nodes": []}, {"name": "swish_12", "class_name": "Swish", "config": {"name": "swish_12", "trainable": true}, "inbound_nodes": [[["batch_normalization_12", 0, 0, {}]]]}, {"name": "lambda_5", "class_name": "Lambda", "config": {"name": "lambda_5", "trainable": true, "function": ["4wEAAAAAAAAAAQAAAAUAAAATAAAAcxAAAAB0AGoBfACIAGQBZAKNA1MAKQNOVCkC2gRheGlz2ghr\nZWVwZGltcykC2gFL2gRtZWFuKQHaAWEpAdoMc3BhdGlhbF9kaW1zqQD6WC9rYWdnbGUvaW5wdXQv\nZWZmaWNpZW50bmV0L2VmZmljaWVudG5ldC1tYXN0ZXIvZWZmaWNpZW50bmV0LW1hc3Rlci9lZmZp\nY2llbnRuZXQvbW9kZWwucHnaCDxsYW1iZGE+XwAAAHMAAAAA\n", null, [[1, 2]]], "function_type": "lambda", "output_shape": null, "output_shape_type": "raw", "arguments": {}}, "inbound_nodes": [[["swish_12", 0, 0, {}]]]}, {"name": "conv2d_16", "class_name": "Conv2D", "config": {"name": "conv2d_16", "trainable": true, "filters": 10, "kernel_size": [1, 1], "strides": [1, 1], "padding": "same", "data_format": "channels_last", "dilation_rate": [1, 1], "activation": "linear", "use_bias": true, "kernel_initializer": {"class_name": "EfficientConv2DKernelInitializer", "config": {}}, "bias_initializer": {"class_name": "Zeros", "config": {}}, "kernel_regularizer": null, "bias_regularizer": null, "activity_regularizer": null, "kernel_constraint": null, "bias_constraint": null}, "inbound_nodes": [[["lambda_5", 0, 0, {}]]]}, {"name": "swish_13", "class_name": "Swish", "config": {"name": "swish_13", "trainable": true}, "inbound_nodes": [[["conv2d_16", 0, 0, {}]]]}, {"name": "conv2d_17", "class_name": "Conv2D", "config": {"name": "conv2d_17", "trainable": true, "filters": 240, "kernel_size": [1, 1], "strides": [1, 1], "padding": "same", "data_format": "channels_last", "dilation_rate": [1, 1], "activation": "linear", "use_bias": true, "kernel_initializer": {"class_name": "EfficientConv2DKernelInitializer", "config": {}}, "bias_initializer": {"class_name": "Zeros", "config": {}}, "kernel_regularizer": null, "bias_regularizer": null, "activity_regularizer": null, "kernel_constraint": null, "bias_constraint": null}, "inbound_nodes": [[["swish_13", 0, 0, {}]]]}, {"name": "activation_5", "class_name": "Activation", "config": {"name": "activation_5", "trainable": true, "activation": "sigmoid"}, "inbound_nodes": [[["conv2d_17", 0, 0, {}]]]}, {"name": "multiply_5", "class_name": "Multiply", "config": {"name": "multiply_5", "trainable": true}, "inbound_nodes": [[["activation_5", 0, 0, {}], ["swish_12", 0, 0, {}]]]}, {"name": "conv2d_18", "class_name": "Conv2D", "config": {"name": "conv2d_18", "trainable": true, "filters": 40, "kernel_size": [1, 1], "strides": [1, 1], "padding": "same", "data_format": "channels_last", "dilation_rate": [1, 1], "activation": "linear", "use_bias": false, "kernel_initializer": {"class_name": "EfficientConv2DKernelInitializer", "config": {}}, "bias_initializer": {"class_name": "Zeros", "config": {}}, "kernel_regularizer": null, "bias_regularizer": null, "activity_regularizer": null, "kernel_constraint": null, "bias_constraint": null}, "inbound_nodes": [[["multiply_5", 0, 0, {}]]]}, {"name": "group_normalization_13", "class_name": "GroupNormalization", "config": {"name": "group_normalization_13", "trainable": true, "groups": 32, "axis": -1, "epsilon": 1e-05, "center": true, "scale": true, "beta_initializer": {"class_name": "Zeros", "config": {}}, "gamma_initializer": {"class_name": "Ones", "config": {}}, "beta_regularizer": null, "gamma_regularizer": null, "beta_constraint": null, "gamma_constraint": null}, "inbound_nodes": []}, {"name": "drop_connect_3", "class_name": "DropConnect", "config": {"name": "drop_connect_3", "trainable": true, "drop_connect_rate": 0.0625}, "inbound_nodes": [[["batch_normalization_13", 0, 0, {}]]]}, {"name": "add_3", "class_name": "Add", "config": {"name": "add_3", "trainable": true}, "inbound_nodes": [[["drop_connect_3", 0, 0, {}], ["batch_normalization_10", 0, 0, {}]]]}, {"name": "conv2d_19", "class_name": "Conv2D", "config": {"name": "conv2d_19", "trainable": true, "filters": 240, "kernel_size": [1, 1], "strides": [1, 1], "padding": "same", "data_format": "channels_last", "dilation_rate": [1, 1], "activation": "linear", "use_bias": false, "kernel_initializer": {"class_name": "EfficientConv2DKernelInitializer", "config": {}}, "bias_initializer": {"class_name": "Zeros", "config": {}}, "kernel_regularizer": null, "bias_regularizer": null, "activity_regularizer": null, "kernel_constraint": null, "bias_constraint": null}, "inbound_nodes": [[["add_3", 0, 0, {}]]]}, {"name": "group_normalization_14", "class_name": "GroupNormalization", "config": {"name": "group_normalization_14", "trainable": true, "groups": 32, "axis": -1, "epsilon": 1e-05, "center": true, "scale": true, "beta_initializer": {"class_name": "Zeros", "config": {}}, "gamma_initializer": {"class_name": "Ones", "config": {}}, "beta_regularizer": null, "gamma_regularizer": null, "beta_constraint": null, "gamma_constraint": null}, "inbound_nodes": []}, {"name": "swish_14", "class_name": "Swish", "config": {"name": "swish_14", "trainable": true}, "inbound_nodes": [[["batch_normalization_14", 0, 0, {}]]]}, {"name": "depthwise_conv2d_6", "class_name": "DepthwiseConv2D", "config": {"name": "depthwise_conv2d_6", "trainable": true, "kernel_size": [3, 3], "strides": [1, 1], "padding": "same", "data_format": "channels_last", "dilation_rate": [1, 1], "activation": "linear", "use_bias": false, "bias_initializer": {"class_name": "Zeros", "config": {}}, "bias_regularizer": null, "activity_regularizer": null, "bias_constraint": null, "depth_multiplier": 1, "depthwise_initializer": {"class_name": "EfficientConv2DKernelInitializer", "config": {}}, "depthwise_regularizer": null, "depthwise_constraint": null}, "inbound_nodes": [[["swish_14", 0, 0, {}]]]}, {"name": "group_normalization_15", "class_name": "GroupNormalization", "config": {"name": "group_normalization_15", "trainable": true, "groups": 32, "axis": -1, "epsilon": 1e-05, "center": true, "scale": true, "beta_initializer": {"class_name": "Zeros", "config": {}}, "gamma_initializer": {"class_name": "Ones", "config": {}}, "beta_regularizer": null, "gamma_regularizer": null, "beta_constraint": null, "gamma_constraint": null}, "inbound_nodes": []}, {"name": "swish_15", "class_name": "Swish", "config": {"name": "swish_15", "trainable": true}, "inbound_nodes": [[["batch_normalization_15", 0, 0, {}]]]}, {"name": "lambda_6", "class_name": "Lambda", "config": {"name": "lambda_6", "trainable": true, "function": ["4wEAAAAAAAAAAQAAAAUAAAATAAAAcxAAAAB0AGoBfACIAGQBZAKNA1MAKQNOVCkC2gRheGlz2ghr\nZWVwZGltcykC2gFL2gRtZWFuKQHaAWEpAdoMc3BhdGlhbF9kaW1zqQD6WC9rYWdnbGUvaW5wdXQv\nZWZmaWNpZW50bmV0L2VmZmljaWVudG5ldC1tYXN0ZXIvZWZmaWNpZW50bmV0LW1hc3Rlci9lZmZp\nY2llbnRuZXQvbW9kZWwucHnaCDxsYW1iZGE+XwAAAHMAAAAA\n", null, [[1, 2]]], "function_type": "lambda", "output_shape": null, "output_shape_type": "raw", "arguments": {}}, "inbound_nodes": [[["swish_15", 0, 0, {}]]]}, {"name": "conv2d_20", "class_name": "Conv2D", "config": {"name": "conv2d_20", "trainable": true, "filters": 10, "kernel_size": [1, 1], "strides": [1, 1], "padding": "same", "data_format": "channels_last", "dilation_rate": [1, 1], "activation": "linear", "use_bias": true, "kernel_initializer": {"class_name": "EfficientConv2DKernelInitializer", "config": {}}, "bias_initializer": {"class_name": "Zeros", "config": {}}, "kernel_regularizer": null, "bias_regularizer": null, "activity_regularizer": null, "kernel_constraint": null, "bias_constraint": null}, "inbound_nodes": [[["lambda_6", 0, 0, {}]]]}, {"name": "swish_16", "class_name": "Swish", "config": {"name": "swish_16", "trainable": true}, "inbound_nodes": [[["conv2d_20", 0, 0, {}]]]}, {"name": "conv2d_21", "class_name": "Conv2D", "config": {"name": "conv2d_21", "trainable": true, "filters": 240, "kernel_size": [1, 1], "strides": [1, 1], "padding": "same", "data_format": "channels_last", "dilation_rate": [1, 1], "activation": "linear", "use_bias": true, "kernel_initializer": {"class_name": "EfficientConv2DKernelInitializer", "config": {}}, "bias_initializer": {"class_name": "Zeros", "config": {}}, "kernel_regularizer": null, "bias_regularizer": null, "activity_regularizer": null, "kernel_constraint": null, "bias_constraint": null}, "inbound_nodes": [[["swish_16", 0, 0, {}]]]}, {"name": "activation_6", "class_name": "Activation", "config": {"name": "activation_6", "trainable": true, "activation": "sigmoid"}, "inbound_nodes": [[["conv2d_21", 0, 0, {}]]]}, {"name": "multiply_6", "class_name": "Multiply", "config": {"name": "multiply_6", "trainable": true}, "inbound_nodes": [[["activation_6", 0, 0, {}], ["swish_15", 0, 0, {}]]]}, {"name": "conv2d_22", "class_name": "Conv2D", "config": {"name": "conv2d_22", "trainable": true, "filters": 40, "kernel_size": [1, 1], "strides": [1, 1], "padding": "same", "data_format": "channels_last", "dilation_rate": [1, 1], "activation": "linear", "use_bias": false, "kernel_initializer": {"class_name": "EfficientConv2DKernelInitializer", "config": {}}, "bias_initializer": {"class_name": "Zeros", "config": {}}, "kernel_regularizer": null, "bias_regularizer": null, "activity_regularizer": null, "kernel_constraint": null, "bias_constraint": null}, "inbound_nodes": [[["multiply_6", 0, 0, {}]]]}, {"name": "group_normalization_16", "class_name": "GroupNormalization", "config": {"name": "group_normalization_16", "trainable": true, "groups": 32, "axis": -1, "epsilon": 1e-05, "center": true, "scale": true, "beta_initializer": {"class_name": "Zeros", "config": {}}, "gamma_initializer": {"class_name": "Ones", "config": {}}, "beta_regularizer": null, "gamma_regularizer": null, "beta_constraint": null, "gamma_constraint": null}, "inbound_nodes": []}, {"name": "drop_connect_4", "class_name": "DropConnect", "config": {"name": "drop_connect_4", "trainable": true, "drop_connect_rate": 0.07500000000000001}, "inbound_nodes": [[["batch_normalization_16", 0, 0, {}]]]}, {"name": "add_4", "class_name": "Add", "config": {"name": "add_4", "trainable": true}, "inbound_nodes": [[["drop_connect_4", 0, 0, {}], ["add_3", 0, 0, {}]]]}, {"name": "conv2d_23", "class_name": "Conv2D", "config": {"name": "conv2d_23", "trainable": true, "filters": 240, "kernel_size": [1, 1], "strides": [1, 1], "padding": "same", "data_format": "channels_last", "dilation_rate": [1, 1], "activation": "linear", "use_bias": false, "kernel_initializer": {"class_name": "EfficientConv2DKernelInitializer", "config": {}}, "bias_initializer": {"class_name": "Zeros", "config": {}}, "kernel_regularizer": null, "bias_regularizer": null, "activity_regularizer": null, "kernel_constraint": null, "bias_constraint": null}, "inbound_nodes": [[["add_4", 0, 0, {}]]]}, {"name": "group_normalization_17", "class_name": "GroupNormalization", "config": {"name": "group_normalization_17", "trainable": true, "groups": 32, "axis": -1, "epsilon": 1e-05, "center": true, "scale": true, "beta_initializer": {"class_name": "Zeros", "config": {}}, "gamma_initializer": {"class_name": "Ones", "config": {}}, "beta_regularizer": null, "gamma_regularizer": null, "beta_constraint": null, "gamma_constraint": null}, "inbound_nodes": []}, {"name": "swish_17", "class_name": "Swish", "config": {"name": "swish_17", "trainable": true}, "inbound_nodes": [[["batch_normalization_17", 0, 0, {}]]]}, {"name": "depthwise_conv2d_7", "class_name": "DepthwiseConv2D", "config": {"name": "depthwise_conv2d_7", "trainable": true, "kernel_size": [3, 3], "strides": [1, 1], "padding": "same", "data_format": "channels_last", "dilation_rate": [1, 1], "activation": "linear", "use_bias": false, "bias_initializer": {"class_name": "Zeros", "config": {}}, "bias_regularizer": null, "activity_regularizer": null, "bias_constraint": null, "depth_multiplier": 1, "depthwise_initializer": {"class_name": "EfficientConv2DKernelInitializer", "config": {}}, "depthwise_regularizer": null, "depthwise_constraint": null}, "inbound_nodes": [[["swish_17", 0, 0, {}]]]}, {"name": "group_normalization_18", "class_name": "GroupNormalization", "config": {"name": "group_normalization_18", "trainable": true, "groups": 32, "axis": -1, "epsilon": 1e-05, "center": true, "scale": true, "beta_initializer": {"class_name": "Zeros", "config": {}}, "gamma_initializer": {"class_name": "Ones", "config": {}}, "beta_regularizer": null, "gamma_regularizer": null, "beta_constraint": null, "gamma_constraint": null}, "inbound_nodes": []}, {"name": "swish_18", "class_name": "Swish", "config": {"name": "swish_18", "trainable": true}, "inbound_nodes": [[["batch_normalization_18", 0, 0, {}]]]}, {"name": "lambda_7", "class_name": "Lambda", "config": {"name": "lambda_7", "trainable": true, "function": ["4wEAAAAAAAAAAQAAAAUAAAATAAAAcxAAAAB0AGoBfACIAGQBZAKNA1MAKQNOVCkC2gRheGlz2ghr\nZWVwZGltcykC2gFL2gRtZWFuKQHaAWEpAdoMc3BhdGlhbF9kaW1zqQD6WC9rYWdnbGUvaW5wdXQv\nZWZmaWNpZW50bmV0L2VmZmljaWVudG5ldC1tYXN0ZXIvZWZmaWNpZW50bmV0LW1hc3Rlci9lZmZp\nY2llbnRuZXQvbW9kZWwucHnaCDxsYW1iZGE+XwAAAHMAAAAA\n", null, [[1, 2]]], "function_type": "lambda", "output_shape": null, "output_shape_type": "raw", "arguments": {}}, "inbound_nodes": [[["swish_18", 0, 0, {}]]]}, {"name": "conv2d_24", "class_name": "Conv2D", "config": {"name": "conv2d_24", "trainable": true, "filters": 10, "kernel_size": [1, 1], "strides": [1, 1], "padding": "same", "data_format": "channels_last", "dilation_rate": [1, 1], "activation": "linear", "use_bias": true, "kernel_initializer": {"class_name": "EfficientConv2DKernelInitializer", "config": {}}, "bias_initializer": {"class_name": "Zeros", "config": {}}, "kernel_regularizer": null, "bias_regularizer": null, "activity_regularizer": null, "kernel_constraint": null, "bias_constraint": null}, "inbound_nodes": [[["lambda_7", 0, 0, {}]]]}, {"name": "swish_19", "class_name": "Swish", "config": {"name": "swish_19", "trainable": true}, "inbound_nodes": [[["conv2d_24", 0, 0, {}]]]}, {"name": "conv2d_25", "class_name": "Conv2D", "config": {"name": "conv2d_25", "trainable": true, "filters": 240, "kernel_size": [1, 1], "strides": [1, 1], "padding": "same", "data_format": "channels_last", "dilation_rate": [1, 1], "activation": "linear", "use_bias": true, "kernel_initializer": {"class_name": "EfficientConv2DKernelInitializer", "config": {}}, "bias_initializer": {"class_name": "Zeros", "config": {}}, "kernel_regularizer": null, "bias_regularizer": null, "activity_regularizer": null, "kernel_constraint": null, "bias_constraint": null}, "inbound_nodes": [[["swish_19", 0, 0, {}]]]}, {"name": "activation_7", "class_name": "Activation", "config": {"name": "activation_7", "trainable": true, "activation": "sigmoid"}, "inbound_nodes": [[["conv2d_25", 0, 0, {}]]]}, {"name": "multiply_7", "class_name": "Multiply", "config": {"name": "multiply_7", "trainable": true}, "inbound_nodes": [[["activation_7", 0, 0, {}], ["swish_18", 0, 0, {}]]]}, {"name": "conv2d_26", "class_name": "Conv2D", "config": {"name": "conv2d_26", "trainable": true, "filters": 40, "kernel_size": [1, 1], "strides": [1, 1], "padding": "same", "data_format": "channels_last", "dilation_rate": [1, 1], "activation": "linear", "use_bias": false, "kernel_initializer": {"class_name": "EfficientConv2DKernelInitializer", "config": {}}, "bias_initializer": {"class_name": "Zeros", "config": {}}, "kernel_regularizer": null, "bias_regularizer": null, "activity_regularizer": null, "kernel_constraint": null, "bias_constraint": null}, "inbound_nodes": [[["multiply_7", 0, 0, {}]]]}, {"name": "group_normalization_19", "class_name": "GroupNormalization", "config": {"name": "group_normalization_19", "trainable": true, "groups": 32, "axis": -1, "epsilon": 1e-05, "center": true, "scale": true, "beta_initializer": {"class_name": "Zeros", "config": {}}, "gamma_initializer": {"class_name": "Ones", "config": {}}, "beta_regularizer": null, "gamma_regularizer": null, "beta_constraint": null, "gamma_constraint": null}, "inbound_nodes": []}, {"name": "drop_connect_5", "class_name": "DropConnect", "config": {"name": "drop_connect_5", "trainable": true, "drop_connect_rate": 0.08750000000000001}, "inbound_nodes": [[["batch_normalization_19", 0, 0, {}]]]}, {"name": "add_5", "class_name": "Add", "config": {"name": "add_5", "trainable": true}, "inbound_nodes": [[["drop_connect_5", 0, 0, {}], ["add_4", 0, 0, {}]]]}, {"name": "conv2d_27", "class_name": "Conv2D", "config": {"name": "conv2d_27", "trainable": true, "filters": 240, "kernel_size": [1, 1], "strides": [1, 1], "padding": "same", "data_format": "channels_last", "dilation_rate": [1, 1], "activation": "linear", "use_bias": false, "kernel_initializer": {"class_name": "EfficientConv2DKernelInitializer", "config": {}}, "bias_initializer": {"class_name": "Zeros", "config": {}}, "kernel_regularizer": null, "bias_regularizer": null, "activity_regularizer": null, "kernel_constraint": null, "bias_constraint": null}, "inbound_nodes": [[["add_5", 0, 0, {}]]]}, {"name": "group_normalization_20", "class_name": "GroupNormalization", "config": {"name": "group_normalization_20", "trainable": true, "groups": 32, "axis": -1, "epsilon": 1e-05, "center": true, "scale": true, "beta_initializer": {"class_name": "Zeros", "config": {}}, "gamma_initializer": {"class_name": "Ones", "config": {}}, "beta_regularizer": null, "gamma_regularizer": null, "beta_constraint": null, "gamma_constraint": null}, "inbound_nodes": []}, {"name": "swish_20", "class_name": "Swish", "config": {"name": "swish_20", "trainable": true}, "inbound_nodes": [[["batch_normalization_20", 0, 0, {}]]]}, {"name": "depthwise_conv2d_8", "class_name": "DepthwiseConv2D", "config": {"name": "depthwise_conv2d_8", "trainable": true, "kernel_size": [3, 3], "strides": [1, 1], "padding": "same", "data_format": "channels_last", "dilation_rate": [1, 1], "activation": "linear", "use_bias": false, "bias_initializer": {"class_name": "Zeros", "config": {}}, "bias_regularizer": null, "activity_regularizer": null, "bias_constraint": null, "depth_multiplier": 1, "depthwise_initializer": {"class_name": "EfficientConv2DKernelInitializer", "config": {}}, "depthwise_regularizer": null, "depthwise_constraint": null}, "inbound_nodes": [[["swish_20", 0, 0, {}]]]}, {"name": "group_normalization_21", "class_name": "GroupNormalization", "config": {"name": "group_normalization_21", "trainable": true, "groups": 32, "axis": -1, "epsilon": 1e-05, "center": true, "scale": true, "beta_initializer": {"class_name": "Zeros", "config": {}}, "gamma_initializer": {"class_name": "Ones", "config": {}}, "beta_regularizer": null, "gamma_regularizer": null, "beta_constraint": null, "gamma_constraint": null}, "inbound_nodes": []}, {"name": "swish_21", "class_name": "Swish", "config": {"name": "swish_21", "trainable": true}, "inbound_nodes": [[["batch_normalization_21", 0, 0, {}]]]}, {"name": "lambda_8", "class_name": "Lambda", "config": {"name": "lambda_8", "trainable": true, "function": ["4wEAAAAAAAAAAQAAAAUAAAATAAAAcxAAAAB0AGoBfACIAGQBZAKNA1MAKQNOVCkC2gRheGlz2ghr\nZWVwZGltcykC2gFL2gRtZWFuKQHaAWEpAdoMc3BhdGlhbF9kaW1zqQD6WC9rYWdnbGUvaW5wdXQv\nZWZmaWNpZW50bmV0L2VmZmljaWVudG5ldC1tYXN0ZXIvZWZmaWNpZW50bmV0LW1hc3Rlci9lZmZp\nY2llbnRuZXQvbW9kZWwucHnaCDxsYW1iZGE+XwAAAHMAAAAA\n", null, [[1, 2]]], "function_type": "lambda", "output_shape": null, "output_shape_type": "raw", "arguments": {}}, "inbound_nodes": [[["swish_21", 0, 0, {}]]]}, {"name": "conv2d_28", "class_name": "Conv2D", "config": {"name": "conv2d_28", "trainable": true, "filters": 10, "kernel_size": [1, 1], "strides": [1, 1], "padding": "same", "data_format": "channels_last", "dilation_rate": [1, 1], "activation": "linear", "use_bias": true, "kernel_initializer": {"class_name": "EfficientConv2DKernelInitializer", "config": {}}, "bias_initializer": {"class_name": "Zeros", "config": {}}, "kernel_regularizer": null, "bias_regularizer": null, "activity_regularizer": null, "kernel_constraint": null, "bias_constraint": null}, "inbound_nodes": [[["lambda_8", 0, 0, {}]]]}, {"name": "swish_22", "class_name": "Swish", "config": {"name": "swish_22", "trainable": true}, "inbound_nodes": [[["conv2d_28", 0, 0, {}]]]}, {"name": "conv2d_29", "class_name": "Conv2D", "config": {"name": "conv2d_29", "trainable": true, "filters": 240, "kernel_size": [1, 1], "strides": [1, 1], "padding": "same", "data_format": "channels_last", "dilation_rate": [1, 1], "activation": "linear", "use_bias": true, "kernel_initializer": {"class_name": "EfficientConv2DKernelInitializer", "config": {}}, "bias_initializer": {"class_name": "Zeros", "config": {}}, "kernel_regularizer": null, "bias_regularizer": null, "activity_regularizer": null, "kernel_constraint": null, "bias_constraint": null}, "inbound_nodes": [[["swish_22", 0, 0, {}]]]}, {"name": "activation_8", "class_name": "Activation", "config": {"name": "activation_8", "trainable": true, "activation": "sigmoid"}, "inbound_nodes": [[["conv2d_29", 0, 0, {}]]]}, {"name": "multiply_8", "class_name": "Multiply", "config": {"name": "multiply_8", "trainable": true}, "inbound_nodes": [[["activation_8", 0, 0, {}], ["swish_21", 0, 0, {}]]]}, {"name": "conv2d_30", "class_name": "Conv2D", "config": {"name": "conv2d_30", "trainable": true, "filters": 40, "kernel_size": [1, 1], "strides": [1, 1], "padding": "same", "data_format": "channels_last", "dilation_rate": [1, 1], "activation": "linear", "use_bias": false, "kernel_initializer": {"class_name": "EfficientConv2DKernelInitializer", "config": {}}, "bias_initializer": {"class_name": "Zeros", "config": {}}, "kernel_regularizer": null, "bias_regularizer": null, "activity_regularizer": null, "kernel_constraint": null, "bias_constraint": null}, "inbound_nodes": [[["multiply_8", 0, 0, {}]]]}, {"name": "group_normalization_22", "class_name": "GroupNormalization", "config": {"name": "group_normalization_22", "trainable": true, "groups": 32, "axis": -1, "epsilon": 1e-05, "center": true, "scale": true, "beta_initializer": {"class_name": "Zeros", "config": {}}, "gamma_initializer": {"class_name": "Ones", "config": {}}, "beta_regularizer": null, "gamma_regularizer": null, "beta_constraint": null, "gamma_constraint": null}, "inbound_nodes": []}, {"name": "drop_connect_6", "class_name": "DropConnect", "config": {"name": "drop_connect_6", "trainable": true, "drop_connect_rate": 0.1}, "inbound_nodes": [[["batch_normalization_22", 0, 0, {}]]]}, {"name": "add_6", "class_name": "Add", "config": {"name": "add_6", "trainable": true}, "inbound_nodes": [[["drop_connect_6", 0, 0, {}], ["add_5", 0, 0, {}]]]}, {"name": "conv2d_31", "class_name": "Conv2D", "config": {"name": "conv2d_31", "trainable": true, "filters": 240, "kernel_size": [1, 1], "strides": [1, 1], "padding": "same", "data_format": "channels_last", "dilation_rate": [1, 1], "activation": "linear", "use_bias": false, "kernel_initializer": {"class_name": "EfficientConv2DKernelInitializer", "config": {}}, "bias_initializer": {"class_name": "Zeros", "config": {}}, "kernel_regularizer": null, "bias_regularizer": null, "activity_regularizer": null, "kernel_constraint": null, "bias_constraint": null}, "inbound_nodes": [[["add_6", 0, 0, {}]]]}, {"name": "group_normalization_23", "class_name": "GroupNormalization", "config": {"name": "group_normalization_23", "trainable": true, "groups": 32, "axis": -1, "epsilon": 1e-05, "center": true, "scale": true, "beta_initializer": {"class_name": "Zeros", "config": {}}, "gamma_initializer": {"class_name": "Ones", "config": {}}, "beta_regularizer": null, "gamma_regularizer": null, "beta_constraint": null, "gamma_constraint": null}, "inbound_nodes": []}, {"name": "swish_23", "class_name": "Swish", "config": {"name": "swish_23", "trainable": true}, "inbound_nodes": [[["batch_normalization_23", 0, 0, {}]]]}, {"name": "depthwise_conv2d_9", "class_name": "DepthwiseConv2D", "config": {"name": "depthwise_conv2d_9", "trainable": true, "kernel_size": [5, 5], "strides": [2, 2], "padding": "same", "data_format": "channels_last", "dilation_rate": [1, 1], "activation": "linear", "use_bias": false, "bias_initializer": {"class_name": "Zeros", "config": {}}, "bias_regularizer": null, "activity_regularizer": null, "bias_constraint": null, "depth_multiplier": 1, "depthwise_initializer": {"class_name": "EfficientConv2DKernelInitializer", "config": {}}, "depthwise_regularizer": null, "depthwise_constraint": null}, "inbound_nodes": [[["swish_23", 0, 0, {}]]]}, {"name": "group_normalization_24", "class_name": "GroupNormalization", "config": {"name": "group_normalization_24", "trainable": true, "groups": 32, "axis": -1, "epsilon": 1e-05, "center": true, "scale": true, "beta_initializer": {"class_name": "Zeros", "config": {}}, "gamma_initializer": {"class_name": "Ones", "config": {}}, "beta_regularizer": null, "gamma_regularizer": null, "beta_constraint": null, "gamma_constraint": null}, "inbound_nodes": []}, {"name": "swish_24", "class_name": "Swish", "config": {"name": "swish_24", "trainable": true}, "inbound_nodes": [[["batch_normalization_24", 0, 0, {}]]]}, {"name": "lambda_9", "class_name": "Lambda", "config": {"name": "lambda_9", "trainable": true, "function": ["4wEAAAAAAAAAAQAAAAUAAAATAAAAcxAAAAB0AGoBfACIAGQBZAKNA1MAKQNOVCkC2gRheGlz2ghr\nZWVwZGltcykC2gFL2gRtZWFuKQHaAWEpAdoMc3BhdGlhbF9kaW1zqQD6WC9rYWdnbGUvaW5wdXQv\nZWZmaWNpZW50bmV0L2VmZmljaWVudG5ldC1tYXN0ZXIvZWZmaWNpZW50bmV0LW1hc3Rlci9lZmZp\nY2llbnRuZXQvbW9kZWwucHnaCDxsYW1iZGE+XwAAAHMAAAAA\n", null, [[1, 2]]], "function_type": "lambda", "output_shape": null, "output_shape_type": "raw", "arguments": {}}, "inbound_nodes": [[["swish_24", 0, 0, {}]]]}, {"name": "conv2d_32", "class_name": "Conv2D", "config": {"name": "conv2d_32", "trainable": true, "filters": 10, "kernel_size": [1, 1], "strides": [1, 1], "padding": "same", "data_format": "channels_last", "dilation_rate": [1, 1], "activation": "linear", "use_bias": true, "kernel_initializer": {"class_name": "EfficientConv2DKernelInitializer", "config": {}}, "bias_initializer": {"class_name": "Zeros", "config": {}}, "kernel_regularizer": null, "bias_regularizer": null, "activity_regularizer": null, "kernel_constraint": null, "bias_constraint": null}, "inbound_nodes": [[["lambda_9", 0, 0, {}]]]}, {"name": "swish_25", "class_name": "Swish", "config": {"name": "swish_25", "trainable": true}, "inbound_nodes": [[["conv2d_32", 0, 0, {}]]]}, {"name": "conv2d_33", "class_name": "Conv2D", "config": {"name": "conv2d_33", "trainable": true, "filters": 240, "kernel_size": [1, 1], "strides": [1, 1], "padding": "same", "data_format": "channels_last", "dilation_rate": [1, 1], "activation": "linear", "use_bias": true, "kernel_initializer": {"class_name": "EfficientConv2DKernelInitializer", "config": {}}, "bias_initializer": {"class_name": "Zeros", "config": {}}, "kernel_regularizer": null, "bias_regularizer": null, "activity_regularizer": null, "kernel_constraint": null, "bias_constraint": null}, "inbound_nodes": [[["swish_25", 0, 0, {}]]]}, {"name": "activation_9", "class_name": "Activation", "config": {"name": "activation_9", "trainable": true, "activation": "sigmoid"}, "inbound_nodes": [[["conv2d_33", 0, 0, {}]]]}, {"name": "multiply_9", "class_name": "Multiply", "config": {"name": "multiply_9", "trainable": true}, "inbound_nodes": [[["activation_9", 0, 0, {}], ["swish_24", 0, 0, {}]]]}, {"name": "conv2d_34", "class_name": "Conv2D", "config": {"name": "conv2d_34", "trainable": true, "filters": 64, "kernel_size": [1, 1], "strides": [1, 1], "padding": "same", "data_format": "channels_last", "dilation_rate": [1, 1], "activation": "linear", "use_bias": false, "kernel_initializer": {"class_name": "EfficientConv2DKernelInitializer", "config": {}}, "bias_initializer": {"class_name": "Zeros", "config": {}}, "kernel_regularizer": null, "bias_regularizer": null, "activity_regularizer": null, "kernel_constraint": null, "bias_constraint": null}, "inbound_nodes": [[["multiply_9", 0, 0, {}]]]}, {"name": "group_normalization_25", "class_name": "GroupNormalization", "config": {"name": "group_normalization_25", "trainable": true, "groups": 32, "axis": -1, "epsilon": 1e-05, "center": true, "scale": true, "beta_initializer": {"class_name": "Zeros", "config": {}}, "gamma_initializer": {"class_name": "Ones", "config": {}}, "beta_regularizer": null, "gamma_regularizer": null, "beta_constraint": null, "gamma_constraint": null}, "inbound_nodes": []}, {"name": "conv2d_35", "class_name": "Conv2D", "config": {"name": "conv2d_35", "trainable": true, "filters": 384, "kernel_size": [1, 1], "strides": [1, 1], "padding": "same", "data_format": "channels_last", "dilation_rate": [1, 1], "activation": "linear", "use_bias": false, "kernel_initializer": {"class_name": "EfficientConv2DKernelInitializer", "config": {}}, "bias_initializer": {"class_name": "Zeros", "config": {}}, "kernel_regularizer": null, "bias_regularizer": null, "activity_regularizer": null, "kernel_constraint": null, "bias_constraint": null}, "inbound_nodes": [[["batch_normalization_25", 0, 0, {}]]]}, {"name": "group_normalization_26", "class_name": "GroupNormalization", "config": {"name": "group_normalization_26", "trainable": true, "groups": 32, "axis": -1, "epsilon": 1e-05, "center": true, "scale": true, "beta_initializer": {"class_name": "Zeros", "config": {}}, "gamma_initializer": {"class_name": "Ones", "config": {}}, "beta_regularizer": null, "gamma_regularizer": null, "beta_constraint": null, "gamma_constraint": null}, "inbound_nodes": []}, {"name": "swish_26", "class_name": "Swish", "config": {"name": "swish_26", "trainable": true}, "inbound_nodes": [[["batch_normalization_26", 0, 0, {}]]]}, {"name": "depthwise_conv2d_10", "class_name": "DepthwiseConv2D", "config": {"name": "depthwise_conv2d_10", "trainable": true, "kernel_size": [5, 5], "strides": [1, 1], "padding": "same", "data_format": "channels_last", "dilation_rate": [1, 1], "activation": "linear", "use_bias": false, "bias_initializer": {"class_name": "Zeros", "config": {}}, "bias_regularizer": null, "activity_regularizer": null, "bias_constraint": null, "depth_multiplier": 1, "depthwise_initializer": {"class_name": "EfficientConv2DKernelInitializer", "config": {}}, "depthwise_regularizer": null, "depthwise_constraint": null}, "inbound_nodes": [[["swish_26", 0, 0, {}]]]}, {"name": "group_normalization_27", "class_name": "GroupNormalization", "config": {"name": "group_normalization_27", "trainable": true, "groups": 32, "axis": -1, "epsilon": 1e-05, "center": true, "scale": true, "beta_initializer": {"class_name": "Zeros", "config": {}}, "gamma_initializer": {"class_name": "Ones", "config": {}}, "beta_regularizer": null, "gamma_regularizer": null, "beta_constraint": null, "gamma_constraint": null}, "inbound_nodes": []}, {"name": "swish_27", "class_name": "Swish", "config": {"name": "swish_27", "trainable": true}, "inbound_nodes": [[["batch_normalization_27", 0, 0, {}]]]}, {"name": "lambda_10", "class_name": "Lambda", "config": {"name": "lambda_10", "trainable": true, "function": ["4wEAAAAAAAAAAQAAAAUAAAATAAAAcxAAAAB0AGoBfACIAGQBZAKNA1MAKQNOVCkC2gRheGlz2ghr\nZWVwZGltcykC2gFL2gRtZWFuKQHaAWEpAdoMc3BhdGlhbF9kaW1zqQD6WC9rYWdnbGUvaW5wdXQv\nZWZmaWNpZW50bmV0L2VmZmljaWVudG5ldC1tYXN0ZXIvZWZmaWNpZW50bmV0LW1hc3Rlci9lZmZp\nY2llbnRuZXQvbW9kZWwucHnaCDxsYW1iZGE+XwAAAHMAAAAA\n", null, [[1, 2]]], "function_type": "lambda", "output_shape": null, "output_shape_type": "raw", "arguments": {}}, "inbound_nodes": [[["swish_27", 0, 0, {}]]]}, {"name": "conv2d_36", "class_name": "Conv2D", "config": {"name": "conv2d_36", "trainable": true, "filters": 16, "kernel_size": [1, 1], "strides": [1, 1], "padding": "same", "data_format": "channels_last", "dilation_rate": [1, 1], "activation": "linear", "use_bias": true, "kernel_initializer": {"class_name": "EfficientConv2DKernelInitializer", "config": {}}, "bias_initializer": {"class_name": "Zeros", "config": {}}, "kernel_regularizer": null, "bias_regularizer": null, "activity_regularizer": null, "kernel_constraint": null, "bias_constraint": null}, "inbound_nodes": [[["lambda_10", 0, 0, {}]]]}, {"name": "swish_28", "class_name": "Swish", "config": {"name": "swish_28", "trainable": true}, "inbound_nodes": [[["conv2d_36", 0, 0, {}]]]}, {"name": "conv2d_37", "class_name": "Conv2D", "config": {"name": "conv2d_37", "trainable": true, "filters": 384, "kernel_size": [1, 1], "strides": [1, 1], "padding": "same", "data_format": "channels_last", "dilation_rate": [1, 1], "activation": "linear", "use_bias": true, "kernel_initializer": {"class_name": "EfficientConv2DKernelInitializer", "config": {}}, "bias_initializer": {"class_name": "Zeros", "config": {}}, "kernel_regularizer": null, "bias_regularizer": null, "activity_regularizer": null, "kernel_constraint": null, "bias_constraint": null}, "inbound_nodes": [[["swish_28", 0, 0, {}]]]}, {"name": "activation_10", "class_name": "Activation", "config": {"name": "activation_10", "trainable": true, "activation": "sigmoid"}, "inbound_nodes": [[["conv2d_37", 0, 0, {}]]]}, {"name": "multiply_10", "class_name": "Multiply", "config": {"name": "multiply_10", "trainable": true}, "inbound_nodes": [[["activation_10", 0, 0, {}], ["swish_27", 0, 0, {}]]]}, {"name": "conv2d_38", "class_name": "Conv2D", "config": {"name": "conv2d_38", "trainable": true, "filters": 64, "kernel_size": [1, 1], "strides": [1, 1], "padding": "same", "data_format": "channels_last", "dilation_rate": [1, 1], "activation": "linear", "use_bias": false, "kernel_initializer": {"class_name": "EfficientConv2DKernelInitializer", "config": {}}, "bias_initializer": {"class_name": "Zeros", "config": {}}, "kernel_regularizer": null, "bias_regularizer": null, "activity_regularizer": null, "kernel_constraint": null, "bias_constraint": null}, "inbound_nodes": [[["multiply_10", 0, 0, {}]]]}, {"name": "group_normalization_28", "class_name": "GroupNormalization", "config": {"name": "group_normalization_28", "trainable": true, "groups": 32, "axis": -1, "epsilon": 1e-05, "center": true, "scale": true, "beta_initializer": {"class_name": "Zeros", "config": {}}, "gamma_initializer": {"class_name": "Ones", "config": {}}, "beta_regularizer": null, "gamma_regularizer": null, "beta_constraint": null, "gamma_constraint": null}, "inbound_nodes": []}, {"name": "drop_connect_7", "class_name": "DropConnect", "config": {"name": "drop_connect_7", "trainable": true, "drop_connect_rate": 0.125}, "inbound_nodes": [[["batch_normalization_28", 0, 0, {}]]]}, {"name": "add_7", "class_name": "Add", "config": {"name": "add_7", "trainable": true}, "inbound_nodes": [[["drop_connect_7", 0, 0, {}], ["batch_normalization_25", 0, 0, {}]]]}, {"name": "conv2d_39", "class_name": "Conv2D", "config": {"name": "conv2d_39", "trainable": true, "filters": 384, "kernel_size": [1, 1], "strides": [1, 1], "padding": "same", "data_format": "channels_last", "dilation_rate": [1, 1], "activation": "linear", "use_bias": false, "kernel_initializer": {"class_name": "EfficientConv2DKernelInitializer", "config": {}}, "bias_initializer": {"class_name": "Zeros", "config": {}}, "kernel_regularizer": null, "bias_regularizer": null, "activity_regularizer": null, "kernel_constraint": null, "bias_constraint": null}, "inbound_nodes": [[["add_7", 0, 0, {}]]]}, {"name": "group_normalization_29", "class_name": "GroupNormalization", "config": {"name": "group_normalization_29", "trainable": true, "groups": 32, "axis": -1, "epsilon": 1e-05, "center": true, "scale": true, "beta_initializer": {"class_name": "Zeros", "config": {}}, "gamma_initializer": {"class_name": "Ones", "config": {}}, "beta_regularizer": null, "gamma_regularizer": null, "beta_constraint": null, "gamma_constraint": null}, "inbound_nodes": []}, {"name": "swish_29", "class_name": "Swish", "config": {"name": "swish_29", "trainable": true}, "inbound_nodes": [[["batch_normalization_29", 0, 0, {}]]]}, {"name": "depthwise_conv2d_11", "class_name": "DepthwiseConv2D", "config": {"name": "depthwise_conv2d_11", "trainable": true, "kernel_size": [5, 5], "strides": [1, 1], "padding": "same", "data_format": "channels_last", "dilation_rate": [1, 1], "activation": "linear", "use_bias": false, "bias_initializer": {"class_name": "Zeros", "config": {}}, "bias_regularizer": null, "activity_regularizer": null, "bias_constraint": null, "depth_multiplier": 1, "depthwise_initializer": {"class_name": "EfficientConv2DKernelInitializer", "config": {}}, "depthwise_regularizer": null, "depthwise_constraint": null}, "inbound_nodes": [[["swish_29", 0, 0, {}]]]}, {"name": "group_normalization_30", "class_name": "GroupNormalization", "config": {"name": "group_normalization_30", "trainable": true, "groups": 32, "axis": -1, "epsilon": 1e-05, "center": true, "scale": true, "beta_initializer": {"class_name": "Zeros", "config": {}}, "gamma_initializer": {"class_name": "Ones", "config": {}}, "beta_regularizer": null, "gamma_regularizer": null, "beta_constraint": null, "gamma_constraint": null}, "inbound_nodes": []}, {"name": "swish_30", "class_name": "Swish", "config": {"name": "swish_30", "trainable": true}, "inbound_nodes": [[["batch_normalization_30", 0, 0, {}]]]}, {"name": "lambda_11", "class_name": "Lambda", "config": {"name": "lambda_11", "trainable": true, "function": ["4wEAAAAAAAAAAQAAAAUAAAATAAAAcxAAAAB0AGoBfACIAGQBZAKNA1MAKQNOVCkC2gRheGlz2ghr\nZWVwZGltcykC2gFL2gRtZWFuKQHaAWEpAdoMc3BhdGlhbF9kaW1zqQD6WC9rYWdnbGUvaW5wdXQv\nZWZmaWNpZW50bmV0L2VmZmljaWVudG5ldC1tYXN0ZXIvZWZmaWNpZW50bmV0LW1hc3Rlci9lZmZp\nY2llbnRuZXQvbW9kZWwucHnaCDxsYW1iZGE+XwAAAHMAAAAA\n", null, [[1, 2]]], "function_type": "lambda", "output_shape": null, "output_shape_type": "raw", "arguments": {}}, "inbound_nodes": [[["swish_30", 0, 0, {}]]]}, {"name": "conv2d_40", "class_name": "Conv2D", "config": {"name": "conv2d_40", "trainable": true, "filters": 16, "kernel_size": [1, 1], "strides": [1, 1], "padding": "same", "data_format": "channels_last", "dilation_rate": [1, 1], "activation": "linear", "use_bias": true, "kernel_initializer": {"class_name": "EfficientConv2DKernelInitializer", "config": {}}, "bias_initializer": {"class_name": "Zeros", "config": {}}, "kernel_regularizer": null, "bias_regularizer": null, "activity_regularizer": null, "kernel_constraint": null, "bias_constraint": null}, "inbound_nodes": [[["lambda_11", 0, 0, {}]]]}, {"name": "swish_31", "class_name": "Swish", "config": {"name": "swish_31", "trainable": true}, "inbound_nodes": [[["conv2d_40", 0, 0, {}]]]}, {"name": "conv2d_41", "class_name": "Conv2D", "config": {"name": "conv2d_41", "trainable": true, "filters": 384, "kernel_size": [1, 1], "strides": [1, 1], "padding": "same", "data_format": "channels_last", "dilation_rate": [1, 1], "activation": "linear", "use_bias": true, "kernel_initializer": {"class_name": "EfficientConv2DKernelInitializer", "config": {}}, "bias_initializer": {"class_name": "Zeros", "config": {}}, "kernel_regularizer": null, "bias_regularizer": null, "activity_regularizer": null, "kernel_constraint": null, "bias_constraint": null}, "inbound_nodes": [[["swish_31", 0, 0, {}]]]}, {"name": "activation_11", "class_name": "Activation", "config": {"name": "activation_11", "trainable": true, "activation": "sigmoid"}, "inbound_nodes": [[["conv2d_41", 0, 0, {}]]]}, {"name": "multiply_11", "class_name": "Multiply", "config": {"name": "multiply_11", "trainable": true}, "inbound_nodes": [[["activation_11", 0, 0, {}], ["swish_30", 0, 0, {}]]]}, {"name": "conv2d_42", "class_name": "Conv2D", "config": {"name": "conv2d_42", "trainable": true, "filters": 64, "kernel_size": [1, 1], "strides": [1, 1], "padding": "same", "data_format": "channels_last", "dilation_rate": [1, 1], "activation": "linear", "use_bias": false, "kernel_initializer": {"class_name": "EfficientConv2DKernelInitializer", "config": {}}, "bias_initializer": {"class_name": "Zeros", "config": {}}, "kernel_regularizer": null, "bias_regularizer": null, "activity_regularizer": null, "kernel_constraint": null, "bias_constraint": null}, "inbound_nodes": [[["multiply_11", 0, 0, {}]]]}, {"name": "group_normalization_31", "class_name": "GroupNormalization", "config": {"name": "group_normalization_31", "trainable": true, "groups": 32, "axis": -1, "epsilon": 1e-05, "center": true, "scale": true, "beta_initializer": {"class_name": "Zeros", "config": {}}, "gamma_initializer": {"class_name": "Ones", "config": {}}, "beta_regularizer": null, "gamma_regularizer": null, "beta_constraint": null, "gamma_constraint": null}, "inbound_nodes": []}, {"name": "drop_connect_8", "class_name": "DropConnect", "config": {"name": "drop_connect_8", "trainable": true, "drop_connect_rate": 0.1375}, "inbound_nodes": [[["batch_normalization_31", 0, 0, {}]]]}, {"name": "add_8", "class_name": "Add", "config": {"name": "add_8", "trainable": true}, "inbound_nodes": [[["drop_connect_8", 0, 0, {}], ["add_7", 0, 0, {}]]]}, {"name": "conv2d_43", "class_name": "Conv2D", "config": {"name": "conv2d_43", "trainable": true, "filters": 384, "kernel_size": [1, 1], "strides": [1, 1], "padding": "same", "data_format": "channels_last", "dilation_rate": [1, 1], "activation": "linear", "use_bias": false, "kernel_initializer": {"class_name": "EfficientConv2DKernelInitializer", "config": {}}, "bias_initializer": {"class_name": "Zeros", "config": {}}, "kernel_regularizer": null, "bias_regularizer": null, "activity_regularizer": null, "kernel_constraint": null, "bias_constraint": null}, "inbound_nodes": [[["add_8", 0, 0, {}]]]}, {"name": "group_normalization_32", "class_name": "GroupNormalization", "config": {"name": "group_normalization_32", "trainable": true, "groups": 32, "axis": -1, "epsilon": 1e-05, "center": true, "scale": true, "beta_initializer": {"class_name": "Zeros", "config": {}}, "gamma_initializer": {"class_name": "Ones", "config": {}}, "beta_regularizer": null, "gamma_regularizer": null, "beta_constraint": null, "gamma_constraint": null}, "inbound_nodes": []}, {"name": "swish_32", "class_name": "Swish", "config": {"name": "swish_32", "trainable": true}, "inbound_nodes": [[["batch_normalization_32", 0, 0, {}]]]}, {"name": "depthwise_conv2d_12", "class_name": "DepthwiseConv2D", "config": {"name": "depthwise_conv2d_12", "trainable": true, "kernel_size": [5, 5], "strides": [1, 1], "padding": "same", "data_format": "channels_last", "dilation_rate": [1, 1], "activation": "linear", "use_bias": false, "bias_initializer": {"class_name": "Zeros", "config": {}}, "bias_regularizer": null, "activity_regularizer": null, "bias_constraint": null, "depth_multiplier": 1, "depthwise_initializer": {"class_name": "EfficientConv2DKernelInitializer", "config": {}}, "depthwise_regularizer": null, "depthwise_constraint": null}, "inbound_nodes": [[["swish_32", 0, 0, {}]]]}, {"name": "group_normalization_33", "class_name": "GroupNormalization", "config": {"name": "group_normalization_33", "trainable": true, "groups": 32, "axis": -1, "epsilon": 1e-05, "center": true, "scale": true, "beta_initializer": {"class_name": "Zeros", "config": {}}, "gamma_initializer": {"class_name": "Ones", "config": {}}, "beta_regularizer": null, "gamma_regularizer": null, "beta_constraint": null, "gamma_constraint": null}, "inbound_nodes": []}, {"name": "swish_33", "class_name": "Swish", "config": {"name": "swish_33", "trainable": true}, "inbound_nodes": [[["batch_normalization_33", 0, 0, {}]]]}, {"name": "lambda_12", "class_name": "Lambda", "config": {"name": "lambda_12", "trainable": true, "function": ["4wEAAAAAAAAAAQAAAAUAAAATAAAAcxAAAAB0AGoBfACIAGQBZAKNA1MAKQNOVCkC2gRheGlz2ghr\nZWVwZGltcykC2gFL2gRtZWFuKQHaAWEpAdoMc3BhdGlhbF9kaW1zqQD6WC9rYWdnbGUvaW5wdXQv\nZWZmaWNpZW50bmV0L2VmZmljaWVudG5ldC1tYXN0ZXIvZWZmaWNpZW50bmV0LW1hc3Rlci9lZmZp\nY2llbnRuZXQvbW9kZWwucHnaCDxsYW1iZGE+XwAAAHMAAAAA\n", null, [[1, 2]]], "function_type": "lambda", "output_shape": null, "output_shape_type": "raw", "arguments": {}}, "inbound_nodes": [[["swish_33", 0, 0, {}]]]}, {"name": "conv2d_44", "class_name": "Conv2D", "config": {"name": "conv2d_44", "trainable": true, "filters": 16, "kernel_size": [1, 1], "strides": [1, 1], "padding": "same", "data_format": "channels_last", "dilation_rate": [1, 1], "activation": "linear", "use_bias": true, "kernel_initializer": {"class_name": "EfficientConv2DKernelInitializer", "config": {}}, "bias_initializer": {"class_name": "Zeros", "config": {}}, "kernel_regularizer": null, "bias_regularizer": null, "activity_regularizer": null, "kernel_constraint": null, "bias_constraint": null}, "inbound_nodes": [[["lambda_12", 0, 0, {}]]]}, {"name": "swish_34", "class_name": "Swish", "config": {"name": "swish_34", "trainable": true}, "inbound_nodes": [[["conv2d_44", 0, 0, {}]]]}, {"name": "conv2d_45", "class_name": "Conv2D", "config": {"name": "conv2d_45", "trainable": true, "filters": 384, "kernel_size": [1, 1], "strides": [1, 1], "padding": "same", "data_format": "channels_last", "dilation_rate": [1, 1], "activation": "linear", "use_bias": true, "kernel_initializer": {"class_name": "EfficientConv2DKernelInitializer", "config": {}}, "bias_initializer": {"class_name": "Zeros", "config": {}}, "kernel_regularizer": null, "bias_regularizer": null, "activity_regularizer": null, "kernel_constraint": null, "bias_constraint": null}, "inbound_nodes": [[["swish_34", 0, 0, {}]]]}, {"name": "activation_12", "class_name": "Activation", "config": {"name": "activation_12", "trainable": true, "activation": "sigmoid"}, "inbound_nodes": [[["conv2d_45", 0, 0, {}]]]}, {"name": "multiply_12", "class_name": "Multiply", "config": {"name": "multiply_12", "trainable": true}, "inbound_nodes": [[["activation_12", 0, 0, {}], ["swish_33", 0, 0, {}]]]}, {"name": "conv2d_46", "class_name": "Conv2D", "config": {"name": "conv2d_46", "trainable": true, "filters": 64, "kernel_size": [1, 1], "strides": [1, 1], "padding": "same", "data_format": "channels_last", "dilation_rate": [1, 1], "activation": "linear", "use_bias": false, "kernel_initializer": {"class_name": "EfficientConv2DKernelInitializer", "config": {}}, "bias_initializer": {"class_name": "Zeros", "config": {}}, "kernel_regularizer": null, "bias_regularizer": null, "activity_regularizer": null, "kernel_constraint": null, "bias_constraint": null}, "inbound_nodes": [[["multiply_12", 0, 0, {}]]]}, {"name": "group_normalization_34", "class_name": "GroupNormalization", "config": {"name": "group_normalization_34", "trainable": true, "groups": 32, "axis": -1, "epsilon": 1e-05, "center": true, "scale": true, "beta_initializer": {"class_name": "Zeros", "config": {}}, "gamma_initializer": {"class_name": "Ones", "config": {}}, "beta_regularizer": null, "gamma_regularizer": null, "beta_constraint": null, "gamma_constraint": null}, "inbound_nodes": []}, {"name": "drop_connect_9", "class_name": "DropConnect", "config": {"name": "drop_connect_9", "trainable": true, "drop_connect_rate": 0.15000000000000002}, "inbound_nodes": [[["batch_normalization_34", 0, 0, {}]]]}, {"name": "add_9", "class_name": "Add", "config": {"name": "add_9", "trainable": true}, "inbound_nodes": [[["drop_connect_9", 0, 0, {}], ["add_8", 0, 0, {}]]]}, {"name": "conv2d_47", "class_name": "Conv2D", "config": {"name": "conv2d_47", "trainable": true, "filters": 384, "kernel_size": [1, 1], "strides": [1, 1], "padding": "same", "data_format": "channels_last", "dilation_rate": [1, 1], "activation": "linear", "use_bias": false, "kernel_initializer": {"class_name": "EfficientConv2DKernelInitializer", "config": {}}, "bias_initializer": {"class_name": "Zeros", "config": {}}, "kernel_regularizer": null, "bias_regularizer": null, "activity_regularizer": null, "kernel_constraint": null, "bias_constraint": null}, "inbound_nodes": [[["add_9", 0, 0, {}]]]}, {"name": "group_normalization_35", "class_name": "GroupNormalization", "config": {"name": "group_normalization_35", "trainable": true, "groups": 32, "axis": -1, "epsilon": 1e-05, "center": true, "scale": true, "beta_initializer": {"class_name": "Zeros", "config": {}}, "gamma_initializer": {"class_name": "Ones", "config": {}}, "beta_regularizer": null, "gamma_regularizer": null, "beta_constraint": null, "gamma_constraint": null}, "inbound_nodes": []}, {"name": "swish_35", "class_name": "Swish", "config": {"name": "swish_35", "trainable": true}, "inbound_nodes": [[["batch_normalization_35", 0, 0, {}]]]}, {"name": "depthwise_conv2d_13", "class_name": "DepthwiseConv2D", "config": {"name": "depthwise_conv2d_13", "trainable": true, "kernel_size": [5, 5], "strides": [1, 1], "padding": "same", "data_format": "channels_last", "dilation_rate": [1, 1], "activation": "linear", "use_bias": false, "bias_initializer": {"class_name": "Zeros", "config": {}}, "bias_regularizer": null, "activity_regularizer": null, "bias_constraint": null, "depth_multiplier": 1, "depthwise_initializer": {"class_name": "EfficientConv2DKernelInitializer", "config": {}}, "depthwise_regularizer": null, "depthwise_constraint": null}, "inbound_nodes": [[["swish_35", 0, 0, {}]]]}, {"name": "group_normalization_36", "class_name": "GroupNormalization", "config": {"name": "group_normalization_36", "trainable": true, "groups": 32, "axis": -1, "epsilon": 1e-05, "center": true, "scale": true, "beta_initializer": {"class_name": "Zeros", "config": {}}, "gamma_initializer": {"class_name": "Ones", "config": {}}, "beta_regularizer": null, "gamma_regularizer": null, "beta_constraint": null, "gamma_constraint": null}, "inbound_nodes": []}, {"name": "swish_36", "class_name": "Swish", "config": {"name": "swish_36", "trainable": true}, "inbound_nodes": [[["batch_normalization_36", 0, 0, {}]]]}, {"name": "lambda_13", "class_name": "Lambda", "config": {"name": "lambda_13", "trainable": true, "function": ["4wEAAAAAAAAAAQAAAAUAAAATAAAAcxAAAAB0AGoBfACIAGQBZAKNA1MAKQNOVCkC2gRheGlz2ghr\nZWVwZGltcykC2gFL2gRtZWFuKQHaAWEpAdoMc3BhdGlhbF9kaW1zqQD6WC9rYWdnbGUvaW5wdXQv\nZWZmaWNpZW50bmV0L2VmZmljaWVudG5ldC1tYXN0ZXIvZWZmaWNpZW50bmV0LW1hc3Rlci9lZmZp\nY2llbnRuZXQvbW9kZWwucHnaCDxsYW1iZGE+XwAAAHMAAAAA\n", null, [[1, 2]]], "function_type": "lambda", "output_shape": null, "output_shape_type": "raw", "arguments": {}}, "inbound_nodes": [[["swish_36", 0, 0, {}]]]}, {"name": "conv2d_48", "class_name": "Conv2D", "config": {"name": "conv2d_48", "trainable": true, "filters": 16, "kernel_size": [1, 1], "strides": [1, 1], "padding": "same", "data_format": "channels_last", "dilation_rate": [1, 1], "activation": "linear", "use_bias": true, "kernel_initializer": {"class_name": "EfficientConv2DKernelInitializer", "config": {}}, "bias_initializer": {"class_name": "Zeros", "config": {}}, "kernel_regularizer": null, "bias_regularizer": null, "activity_regularizer": null, "kernel_constraint": null, "bias_constraint": null}, "inbound_nodes": [[["lambda_13", 0, 0, {}]]]}, {"name": "swish_37", "class_name": "Swish", "config": {"name": "swish_37", "trainable": true}, "inbound_nodes": [[["conv2d_48", 0, 0, {}]]]}, {"name": "conv2d_49", "class_name": "Conv2D", "config": {"name": "conv2d_49", "trainable": true, "filters": 384, "kernel_size": [1, 1], "strides": [1, 1], "padding": "same", "data_format": "channels_last", "dilation_rate": [1, 1], "activation": "linear", "use_bias": true, "kernel_initializer": {"class_name": "EfficientConv2DKernelInitializer", "config": {}}, "bias_initializer": {"class_name": "Zeros", "config": {}}, "kernel_regularizer": null, "bias_regularizer": null, "activity_regularizer": null, "kernel_constraint": null, "bias_constraint": null}, "inbound_nodes": [[["swish_37", 0, 0, {}]]]}, {"name": "activation_13", "class_name": "Activation", "config": {"name": "activation_13", "trainable": true, "activation": "sigmoid"}, "inbound_nodes": [[["conv2d_49", 0, 0, {}]]]}, {"name": "multiply_13", "class_name": "Multiply", "config": {"name": "multiply_13", "trainable": true}, "inbound_nodes": [[["activation_13", 0, 0, {}], ["swish_36", 0, 0, {}]]]}, {"name": "conv2d_50", "class_name": "Conv2D", "config": {"name": "conv2d_50", "trainable": true, "filters": 64, "kernel_size": [1, 1], "strides": [1, 1], "padding": "same", "data_format": "channels_last", "dilation_rate": [1, 1], "activation": "linear", "use_bias": false, "kernel_initializer": {"class_name": "EfficientConv2DKernelInitializer", "config": {}}, "bias_initializer": {"class_name": "Zeros", "config": {}}, "kernel_regularizer": null, "bias_regularizer": null, "activity_regularizer": null, "kernel_constraint": null, "bias_constraint": null}, "inbound_nodes": [[["multiply_13", 0, 0, {}]]]}, {"name": "group_normalization_37", "class_name": "GroupNormalization", "config": {"name": "group_normalization_37", "trainable": true, "groups": 32, "axis": -1, "epsilon": 1e-05, "center": true, "scale": true, "beta_initializer": {"class_name": "Zeros", "config": {}}, "gamma_initializer": {"class_name": "Ones", "config": {}}, "beta_regularizer": null, "gamma_regularizer": null, "beta_constraint": null, "gamma_constraint": null}, "inbound_nodes": []}, {"name": "drop_connect_10", "class_name": "DropConnect", "config": {"name": "drop_connect_10", "trainable": true, "drop_connect_rate": 0.1625}, "inbound_nodes": [[["batch_normalization_37", 0, 0, {}]]]}, {"name": "add_10", "class_name": "Add", "config": {"name": "add_10", "trainable": true}, "inbound_nodes": [[["drop_connect_10", 0, 0, {}], ["add_9", 0, 0, {}]]]}, {"name": "conv2d_51", "class_name": "Conv2D", "config": {"name": "conv2d_51", "trainable": true, "filters": 384, "kernel_size": [1, 1], "strides": [1, 1], "padding": "same", "data_format": "channels_last", "dilation_rate": [1, 1], "activation": "linear", "use_bias": false, "kernel_initializer": {"class_name": "EfficientConv2DKernelInitializer", "config": {}}, "bias_initializer": {"class_name": "Zeros", "config": {}}, "kernel_regularizer": null, "bias_regularizer": null, "activity_regularizer": null, "kernel_constraint": null, "bias_constraint": null}, "inbound_nodes": [[["add_10", 0, 0, {}]]]}, {"name": "group_normalization_38", "class_name": "GroupNormalization", "config": {"name": "group_normalization_38", "trainable": true, "groups": 32, "axis": -1, "epsilon": 1e-05, "center": true, "scale": true, "beta_initializer": {"class_name": "Zeros", "config": {}}, "gamma_initializer": {"class_name": "Ones", "config": {}}, "beta_regularizer": null, "gamma_regularizer": null, "beta_constraint": null, "gamma_constraint": null}, "inbound_nodes": []}, {"name": "swish_38", "class_name": "Swish", "config": {"name": "swish_38", "trainable": true}, "inbound_nodes": [[["batch_normalization_38", 0, 0, {}]]]}, {"name": "depthwise_conv2d_14", "class_name": "DepthwiseConv2D", "config": {"name": "depthwise_conv2d_14", "trainable": true, "kernel_size": [3, 3], "strides": [2, 2], "padding": "same", "data_format": "channels_last", "dilation_rate": [1, 1], "activation": "linear", "use_bias": false, "bias_initializer": {"class_name": "Zeros", "config": {}}, "bias_regularizer": null, "activity_regularizer": null, "bias_constraint": null, "depth_multiplier": 1, "depthwise_initializer": {"class_name": "EfficientConv2DKernelInitializer", "config": {}}, "depthwise_regularizer": null, "depthwise_constraint": null}, "inbound_nodes": [[["swish_38", 0, 0, {}]]]}, {"name": "group_normalization_39", "class_name": "GroupNormalization", "config": {"name": "group_normalization_39", "trainable": true, "groups": 32, "axis": -1, "epsilon": 1e-05, "center": true, "scale": true, "beta_initializer": {"class_name": "Zeros", "config": {}}, "gamma_initializer": {"class_name": "Ones", "config": {}}, "beta_regularizer": null, "gamma_regularizer": null, "beta_constraint": null, "gamma_constraint": null}, "inbound_nodes": []}, {"name": "swish_39", "class_name": "Swish", "config": {"name": "swish_39", "trainable": true}, "inbound_nodes": [[["batch_normalization_39", 0, 0, {}]]]}, {"name": "lambda_14", "class_name": "Lambda", "config": {"name": "lambda_14", "trainable": true, "function": ["4wEAAAAAAAAAAQAAAAUAAAATAAAAcxAAAAB0AGoBfACIAGQBZAKNA1MAKQNOVCkC2gRheGlz2ghr\nZWVwZGltcykC2gFL2gRtZWFuKQHaAWEpAdoMc3BhdGlhbF9kaW1zqQD6WC9rYWdnbGUvaW5wdXQv\nZWZmaWNpZW50bmV0L2VmZmljaWVudG5ldC1tYXN0ZXIvZWZmaWNpZW50bmV0LW1hc3Rlci9lZmZp\nY2llbnRuZXQvbW9kZWwucHnaCDxsYW1iZGE+XwAAAHMAAAAA\n", null, [[1, 2]]], "function_type": "lambda", "output_shape": null, "output_shape_type": "raw", "arguments": {}}, "inbound_nodes": [[["swish_39", 0, 0, {}]]]}, {"name": "conv2d_52", "class_name": "Conv2D", "config": {"name": "conv2d_52", "trainable": true, "filters": 16, "kernel_size": [1, 1], "strides": [1, 1], "padding": "same", "data_format": "channels_last", "dilation_rate": [1, 1], "activation": "linear", "use_bias": true, "kernel_initializer": {"class_name": "EfficientConv2DKernelInitializer", "config": {}}, "bias_initializer": {"class_name": "Zeros", "config": {}}, "kernel_regularizer": null, "bias_regularizer": null, "activity_regularizer": null, "kernel_constraint": null, "bias_constraint": null}, "inbound_nodes": [[["lambda_14", 0, 0, {}]]]}, {"name": "swish_40", "class_name": "Swish", "config": {"name": "swish_40", "trainable": true}, "inbound_nodes": [[["conv2d_52", 0, 0, {}]]]}, {"name": "conv2d_53", "class_name": "Conv2D", "config": {"name": "conv2d_53", "trainable": true, "filters": 384, "kernel_size": [1, 1], "strides": [1, 1], "padding": "same", "data_format": "channels_last", "dilation_rate": [1, 1], "activation": "linear", "use_bias": true, "kernel_initializer": {"class_name": "EfficientConv2DKernelInitializer", "config": {}}, "bias_initializer": {"class_name": "Zeros", "config": {}}, "kernel_regularizer": null, "bias_regularizer": null, "activity_regularizer": null, "kernel_constraint": null, "bias_constraint": null}, "inbound_nodes": [[["swish_40", 0, 0, {}]]]}, {"name": "activation_14", "class_name": "Activation", "config": {"name": "activation_14", "trainable": true, "activation": "sigmoid"}, "inbound_nodes": [[["conv2d_53", 0, 0, {}]]]}, {"name": "multiply_14", "class_name": "Multiply", "config": {"name": "multiply_14", "trainable": true}, "inbound_nodes": [[["activation_14", 0, 0, {}], ["swish_39", 0, 0, {}]]]}, {"name": "conv2d_54", "class_name": "Conv2D", "config": {"name": "conv2d_54", "trainable": true, "filters": 128, "kernel_size": [1, 1], "strides": [1, 1], "padding": "same", "data_format": "channels_last", "dilation_rate": [1, 1], "activation": "linear", "use_bias": false, "kernel_initializer": {"class_name": "EfficientConv2DKernelInitializer", "config": {}}, "bias_initializer": {"class_name": "Zeros", "config": {}}, "kernel_regularizer": null, "bias_regularizer": null, "activity_regularizer": null, "kernel_constraint": null, "bias_constraint": null}, "inbound_nodes": [[["multiply_14", 0, 0, {}]]]}, {"name": "group_normalization_40", "class_name": "GroupNormalization", "config": {"name": "group_normalization_40", "trainable": true, "groups": 32, "axis": -1, "epsilon": 1e-05, "center": true, "scale": true, "beta_initializer": {"class_name": "Zeros", "config": {}}, "gamma_initializer": {"class_name": "Ones", "config": {}}, "beta_regularizer": null, "gamma_regularizer": null, "beta_constraint": null, "gamma_constraint": null}, "inbound_nodes": []}, {"name": "conv2d_55", "class_name": "Conv2D", "config": {"name": "conv2d_55", "trainable": true, "filters": 768, "kernel_size": [1, 1], "strides": [1, 1], "padding": "same", "data_format": "channels_last", "dilation_rate": [1, 1], "activation": "linear", "use_bias": false, "kernel_initializer": {"class_name": "EfficientConv2DKernelInitializer", "config": {}}, "bias_initializer": {"class_name": "Zeros", "config": {}}, "kernel_regularizer": null, "bias_regularizer": null, "activity_regularizer": null, "kernel_constraint": null, "bias_constraint": null}, "inbound_nodes": [[["batch_normalization_40", 0, 0, {}]]]}, {"name": "group_normalization_41", "class_name": "GroupNormalization", "config": {"name": "group_normalization_41", "trainable": true, "groups": 32, "axis": -1, "epsilon": 1e-05, "center": true, "scale": true, "beta_initializer": {"class_name": "Zeros", "config": {}}, "gamma_initializer": {"class_name": "Ones", "config": {}}, "beta_regularizer": null, "gamma_regularizer": null, "beta_constraint": null, "gamma_constraint": null}, "inbound_nodes": []}, {"name": "swish_41", "class_name": "Swish", "config": {"name": "swish_41", "trainable": true}, "inbound_nodes": [[["batch_normalization_41", 0, 0, {}]]]}, {"name": "depthwise_conv2d_15", "class_name": "DepthwiseConv2D", "config": {"name": "depthwise_conv2d_15", "trainable": true, "kernel_size": [3, 3], "strides": [1, 1], "padding": "same", "data_format": "channels_last", "dilation_rate": [1, 1], "activation": "linear", "use_bias": false, "bias_initializer": {"class_name": "Zeros", "config": {}}, "bias_regularizer": null, "activity_regularizer": null, "bias_constraint": null, "depth_multiplier": 1, "depthwise_initializer": {"class_name": "EfficientConv2DKernelInitializer", "config": {}}, "depthwise_regularizer": null, "depthwise_constraint": null}, "inbound_nodes": [[["swish_41", 0, 0, {}]]]}, {"name": "group_normalization_42", "class_name": "GroupNormalization", "config": {"name": "group_normalization_42", "trainable": true, "groups": 32, "axis": -1, "epsilon": 1e-05, "center": true, "scale": true, "beta_initializer": {"class_name": "Zeros", "config": {}}, "gamma_initializer": {"class_name": "Ones", "config": {}}, "beta_regularizer": null, "gamma_regularizer": null, "beta_constraint": null, "gamma_constraint": null}, "inbound_nodes": []}, {"name": "swish_42", "class_name": "Swish", "config": {"name": "swish_42", "trainable": true}, "inbound_nodes": [[["batch_normalization_42", 0, 0, {}]]]}, {"name": "lambda_15", "class_name": "Lambda", "config": {"name": "lambda_15", "trainable": true, "function": ["4wEAAAAAAAAAAQAAAAUAAAATAAAAcxAAAAB0AGoBfACIAGQBZAKNA1MAKQNOVCkC2gRheGlz2ghr\nZWVwZGltcykC2gFL2gRtZWFuKQHaAWEpAdoMc3BhdGlhbF9kaW1zqQD6WC9rYWdnbGUvaW5wdXQv\nZWZmaWNpZW50bmV0L2VmZmljaWVudG5ldC1tYXN0ZXIvZWZmaWNpZW50bmV0LW1hc3Rlci9lZmZp\nY2llbnRuZXQvbW9kZWwucHnaCDxsYW1iZGE+XwAAAHMAAAAA\n", null, [[1, 2]]], "function_type": "lambda", "output_shape": null, "output_shape_type": "raw", "arguments": {}}, "inbound_nodes": [[["swish_42", 0, 0, {}]]]}, {"name": "conv2d_56", "class_name": "Conv2D", "config": {"name": "conv2d_56", "trainable": true, "filters": 32, "kernel_size": [1, 1], "strides": [1, 1], "padding": "same", "data_format": "channels_last", "dilation_rate": [1, 1], "activation": "linear", "use_bias": true, "kernel_initializer": {"class_name": "EfficientConv2DKernelInitializer", "config": {}}, "bias_initializer": {"class_name": "Zeros", "config": {}}, "kernel_regularizer": null, "bias_regularizer": null, "activity_regularizer": null, "kernel_constraint": null, "bias_constraint": null}, "inbound_nodes": [[["lambda_15", 0, 0, {}]]]}, {"name": "swish_43", "class_name": "Swish", "config": {"name": "swish_43", "trainable": true}, "inbound_nodes": [[["conv2d_56", 0, 0, {}]]]}, {"name": "conv2d_57", "class_name": "Conv2D", "config": {"name": "conv2d_57", "trainable": true, "filters": 768, "kernel_size": [1, 1], "strides": [1, 1], "padding": "same", "data_format": "channels_last", "dilation_rate": [1, 1], "activation": "linear", "use_bias": true, "kernel_initializer": {"class_name": "EfficientConv2DKernelInitializer", "config": {}}, "bias_initializer": {"class_name": "Zeros", "config": {}}, "kernel_regularizer": null, "bias_regularizer": null, "activity_regularizer": null, "kernel_constraint": null, "bias_constraint": null}, "inbound_nodes": [[["swish_43", 0, 0, {}]]]}, {"name": "activation_15", "class_name": "Activation", "config": {"name": "activation_15", "trainable": true, "activation": "sigmoid"}, "inbound_nodes": [[["conv2d_57", 0, 0, {}]]]}, {"name": "multiply_15", "class_name": "Multiply", "config": {"name": "multiply_15", "trainable": true}, "inbound_nodes": [[["activation_15", 0, 0, {}], ["swish_42", 0, 0, {}]]]}, {"name": "conv2d_58", "class_name": "Conv2D", "config": {"name": "conv2d_58", "trainable": true, "filters": 128, "kernel_size": [1, 1], "strides": [1, 1], "padding": "same", "data_format": "channels_last", "dilation_rate": [1, 1], "activation": "linear", "use_bias": false, "kernel_initializer": {"class_name": "EfficientConv2DKernelInitializer", "config": {}}, "bias_initializer": {"class_name": "Zeros", "config": {}}, "kernel_regularizer": null, "bias_regularizer": null, "activity_regularizer": null, "kernel_constraint": null, "bias_constraint": null}, "inbound_nodes": [[["multiply_15", 0, 0, {}]]]}, {"name": "group_normalization_43", "class_name": "GroupNormalization", "config": {"name": "group_normalization_43", "trainable": true, "groups": 32, "axis": -1, "epsilon": 1e-05, "center": true, "scale": true, "beta_initializer": {"class_name": "Zeros", "config": {}}, "gamma_initializer": {"class_name": "Ones", "config": {}}, "beta_regularizer": null, "gamma_regularizer": null, "beta_constraint": null, "gamma_constraint": null}, "inbound_nodes": []}, {"name": "drop_connect_11", "class_name": "DropConnect", "config": {"name": "drop_connect_11", "trainable": true, "drop_connect_rate": 0.1875}, "inbound_nodes": [[["batch_normalization_43", 0, 0, {}]]]}, {"name": "add_11", "class_name": "Add", "config": {"name": "add_11", "trainable": true}, "inbound_nodes": [[["drop_connect_11", 0, 0, {}], ["batch_normalization_40", 0, 0, {}]]]}, {"name": "conv2d_59", "class_name": "Conv2D", "config": {"name": "conv2d_59", "trainable": true, "filters": 768, "kernel_size": [1, 1], "strides": [1, 1], "padding": "same", "data_format": "channels_last", "dilation_rate": [1, 1], "activation": "linear", "use_bias": false, "kernel_initializer": {"class_name": "EfficientConv2DKernelInitializer", "config": {}}, "bias_initializer": {"class_name": "Zeros", "config": {}}, "kernel_regularizer": null, "bias_regularizer": null, "activity_regularizer": null, "kernel_constraint": null, "bias_constraint": null}, "inbound_nodes": [[["add_11", 0, 0, {}]]]}, {"name": "group_normalization_44", "class_name": "GroupNormalization", "config": {"name": "group_normalization_44", "trainable": true, "groups": 32, "axis": -1, "epsilon": 1e-05, "center": true, "scale": true, "beta_initializer": {"class_name": "Zeros", "config": {}}, "gamma_initializer": {"class_name": "Ones", "config": {}}, "beta_regularizer": null, "gamma_regularizer": null, "beta_constraint": null, "gamma_constraint": null}, "inbound_nodes": []}, {"name": "swish_44", "class_name": "Swish", "config": {"name": "swish_44", "trainable": true}, "inbound_nodes": [[["batch_normalization_44", 0, 0, {}]]]}, {"name": "depthwise_conv2d_16", "class_name": "DepthwiseConv2D", "config": {"name": "depthwise_conv2d_16", "trainable": true, "kernel_size": [3, 3], "strides": [1, 1], "padding": "same", "data_format": "channels_last", "dilation_rate": [1, 1], "activation": "linear", "use_bias": false, "bias_initializer": {"class_name": "Zeros", "config": {}}, "bias_regularizer": null, "activity_regularizer": null, "bias_constraint": null, "depth_multiplier": 1, "depthwise_initializer": {"class_name": "EfficientConv2DKernelInitializer", "config": {}}, "depthwise_regularizer": null, "depthwise_constraint": null}, "inbound_nodes": [[["swish_44", 0, 0, {}]]]}, {"name": "group_normalization_45", "class_name": "GroupNormalization", "config": {"name": "group_normalization_45", "trainable": true, "groups": 32, "axis": -1, "epsilon": 1e-05, "center": true, "scale": true, "beta_initializer": {"class_name": "Zeros", "config": {}}, "gamma_initializer": {"class_name": "Ones", "config": {}}, "beta_regularizer": null, "gamma_regularizer": null, "beta_constraint": null, "gamma_constraint": null}, "inbound_nodes": []}, {"name": "swish_45", "class_name": "Swish", "config": {"name": "swish_45", "trainable": true}, "inbound_nodes": [[["batch_normalization_45", 0, 0, {}]]]}, {"name": "lambda_16", "class_name": "Lambda", "config": {"name": "lambda_16", "trainable": true, "function": ["4wEAAAAAAAAAAQAAAAUAAAATAAAAcxAAAAB0AGoBfACIAGQBZAKNA1MAKQNOVCkC2gRheGlz2ghr\nZWVwZGltcykC2gFL2gRtZWFuKQHaAWEpAdoMc3BhdGlhbF9kaW1zqQD6WC9rYWdnbGUvaW5wdXQv\nZWZmaWNpZW50bmV0L2VmZmljaWVudG5ldC1tYXN0ZXIvZWZmaWNpZW50bmV0LW1hc3Rlci9lZmZp\nY2llbnRuZXQvbW9kZWwucHnaCDxsYW1iZGE+XwAAAHMAAAAA\n", null, [[1, 2]]], "function_type": "lambda", "output_shape": null, "output_shape_type": "raw", "arguments": {}}, "inbound_nodes": [[["swish_45", 0, 0, {}]]]}, {"name": "conv2d_60", "class_name": "Conv2D", "config": {"name": "conv2d_60", "trainable": true, "filters": 32, "kernel_size": [1, 1], "strides": [1, 1], "padding": "same", "data_format": "channels_last", "dilation_rate": [1, 1], "activation": "linear", "use_bias": true, "kernel_initializer": {"class_name": "EfficientConv2DKernelInitializer", "config": {}}, "bias_initializer": {"class_name": "Zeros", "config": {}}, "kernel_regularizer": null, "bias_regularizer": null, "activity_regularizer": null, "kernel_constraint": null, "bias_constraint": null}, "inbound_nodes": [[["lambda_16", 0, 0, {}]]]}, {"name": "swish_46", "class_name": "Swish", "config": {"name": "swish_46", "trainable": true}, "inbound_nodes": [[["conv2d_60", 0, 0, {}]]]}, {"name": "conv2d_61", "class_name": "Conv2D", "config": {"name": "conv2d_61", "trainable": true, "filters": 768, "kernel_size": [1, 1], "strides": [1, 1], "padding": "same", "data_format": "channels_last", "dilation_rate": [1, 1], "activation": "linear", "use_bias": true, "kernel_initializer": {"class_name": "EfficientConv2DKernelInitializer", "config": {}}, "bias_initializer": {"class_name": "Zeros", "config": {}}, "kernel_regularizer": null, "bias_regularizer": null, "activity_regularizer": null, "kernel_constraint": null, "bias_constraint": null}, "inbound_nodes": [[["swish_46", 0, 0, {}]]]}, {"name": "activation_16", "class_name": "Activation", "config": {"name": "activation_16", "trainable": true, "activation": "sigmoid"}, "inbound_nodes": [[["conv2d_61", 0, 0, {}]]]}, {"name": "multiply_16", "class_name": "Multiply", "config": {"name": "multiply_16", "trainable": true}, "inbound_nodes": [[["activation_16", 0, 0, {}], ["swish_45", 0, 0, {}]]]}, {"name": "conv2d_62", "class_name": "Conv2D", "config": {"name": "conv2d_62", "trainable": true, "filters": 128, "kernel_size": [1, 1], "strides": [1, 1], "padding": "same", "data_format": "channels_last", "dilation_rate": [1, 1], "activation": "linear", "use_bias": false, "kernel_initializer": {"class_name": "EfficientConv2DKernelInitializer", "config": {}}, "bias_initializer": {"class_name": "Zeros", "config": {}}, "kernel_regularizer": null, "bias_regularizer": null, "activity_regularizer": null, "kernel_constraint": null, "bias_constraint": null}, "inbound_nodes": [[["multiply_16", 0, 0, {}]]]}, {"name": "group_normalization_46", "class_name": "GroupNormalization", "config": {"name": "group_normalization_46", "trainable": true, "groups": 32, "axis": -1, "epsilon": 1e-05, "center": true, "scale": true, "beta_initializer": {"class_name": "Zeros", "config": {}}, "gamma_initializer": {"class_name": "Ones", "config": {}}, "beta_regularizer": null, "gamma_regularizer": null, "beta_constraint": null, "gamma_constraint": null}, "inbound_nodes": []}, {"name": "drop_connect_12", "class_name": "DropConnect", "config": {"name": "drop_connect_12", "trainable": true, "drop_connect_rate": 0.2}, "inbound_nodes": [[["batch_normalization_46", 0, 0, {}]]]}, {"name": "add_12", "class_name": "Add", "config": {"name": "add_12", "trainable": true}, "inbound_nodes": [[["drop_connect_12", 0, 0, {}], ["add_11", 0, 0, {}]]]}, {"name": "conv2d_63", "class_name": "Conv2D", "config": {"name": "conv2d_63", "trainable": true, "filters": 768, "kernel_size": [1, 1], "strides": [1, 1], "padding": "same", "data_format": "channels_last", "dilation_rate": [1, 1], "activation": "linear", "use_bias": false, "kernel_initializer": {"class_name": "EfficientConv2DKernelInitializer", "config": {}}, "bias_initializer": {"class_name": "Zeros", "config": {}}, "kernel_regularizer": null, "bias_regularizer": null, "activity_regularizer": null, "kernel_constraint": null, "bias_constraint": null}, "inbound_nodes": [[["add_12", 0, 0, {}]]]}, {"name": "group_normalization_47", "class_name": "GroupNormalization", "config": {"name": "group_normalization_47", "trainable": true, "groups": 32, "axis": -1, "epsilon": 1e-05, "center": true, "scale": true, "beta_initializer": {"class_name": "Zeros", "config": {}}, "gamma_initializer": {"class_name": "Ones", "config": {}}, "beta_regularizer": null, "gamma_regularizer": null, "beta_constraint": null, "gamma_constraint": null}, "inbound_nodes": []}, {"name": "swish_47", "class_name": "Swish", "config": {"name": "swish_47", "trainable": true}, "inbound_nodes": [[["batch_normalization_47", 0, 0, {}]]]}, {"name": "depthwise_conv2d_17", "class_name": "DepthwiseConv2D", "config": {"name": "depthwise_conv2d_17", "trainable": true, "kernel_size": [3, 3], "strides": [1, 1], "padding": "same", "data_format": "channels_last", "dilation_rate": [1, 1], "activation": "linear", "use_bias": false, "bias_initializer": {"class_name": "Zeros", "config": {}}, "bias_regularizer": null, "activity_regularizer": null, "bias_constraint": null, "depth_multiplier": 1, "depthwise_initializer": {"class_name": "EfficientConv2DKernelInitializer", "config": {}}, "depthwise_regularizer": null, "depthwise_constraint": null}, "inbound_nodes": [[["swish_47", 0, 0, {}]]]}, {"name": "group_normalization_48", "class_name": "GroupNormalization", "config": {"name": "group_normalization_48", "trainable": true, "groups": 32, "axis": -1, "epsilon": 1e-05, "center": true, "scale": true, "beta_initializer": {"class_name": "Zeros", "config": {}}, "gamma_initializer": {"class_name": "Ones", "config": {}}, "beta_regularizer": null, "gamma_regularizer": null, "beta_constraint": null, "gamma_constraint": null}, "inbound_nodes": []}, {"name": "swish_48", "class_name": "Swish", "config": {"name": "swish_48", "trainable": true}, "inbound_nodes": [[["batch_normalization_48", 0, 0, {}]]]}, {"name": "lambda_17", "class_name": "Lambda", "config": {"name": "lambda_17", "trainable": true, "function": ["4wEAAAAAAAAAAQAAAAUAAAATAAAAcxAAAAB0AGoBfACIAGQBZAKNA1MAKQNOVCkC2gRheGlz2ghr\nZWVwZGltcykC2gFL2gRtZWFuKQHaAWEpAdoMc3BhdGlhbF9kaW1zqQD6WC9rYWdnbGUvaW5wdXQv\nZWZmaWNpZW50bmV0L2VmZmljaWVudG5ldC1tYXN0ZXIvZWZmaWNpZW50bmV0LW1hc3Rlci9lZmZp\nY2llbnRuZXQvbW9kZWwucHnaCDxsYW1iZGE+XwAAAHMAAAAA\n", null, [[1, 2]]], "function_type": "lambda", "output_shape": null, "output_shape_type": "raw", "arguments": {}}, "inbound_nodes": [[["swish_48", 0, 0, {}]]]}, {"name": "conv2d_64", "class_name": "Conv2D", "config": {"name": "conv2d_64", "trainable": true, "filters": 32, "kernel_size": [1, 1], "strides": [1, 1], "padding": "same", "data_format": "channels_last", "dilation_rate": [1, 1], "activation": "linear", "use_bias": true, "kernel_initializer": {"class_name": "EfficientConv2DKernelInitializer", "config": {}}, "bias_initializer": {"class_name": "Zeros", "config": {}}, "kernel_regularizer": null, "bias_regularizer": null, "activity_regularizer": null, "kernel_constraint": null, "bias_constraint": null}, "inbound_nodes": [[["lambda_17", 0, 0, {}]]]}, {"name": "swish_49", "class_name": "Swish", "config": {"name": "swish_49", "trainable": true}, "inbound_nodes": [[["conv2d_64", 0, 0, {}]]]}, {"name": "conv2d_65", "class_name": "Conv2D", "config": {"name": "conv2d_65", "trainable": true, "filters": 768, "kernel_size": [1, 1], "strides": [1, 1], "padding": "same", "data_format": "channels_last", "dilation_rate": [1, 1], "activation": "linear", "use_bias": true, "kernel_initializer": {"class_name": "EfficientConv2DKernelInitializer", "config": {}}, "bias_initializer": {"class_name": "Zeros", "config": {}}, "kernel_regularizer": null, "bias_regularizer": null, "activity_regularizer": null, "kernel_constraint": null, "bias_constraint": null}, "inbound_nodes": [[["swish_49", 0, 0, {}]]]}, {"name": "activation_17", "class_name": "Activation", "config": {"name": "activation_17", "trainable": true, "activation": "sigmoid"}, "inbound_nodes": [[["conv2d_65", 0, 0, {}]]]}, {"name": "multiply_17", "class_name": "Multiply", "config": {"name": "multiply_17", "trainable": true}, "inbound_nodes": [[["activation_17", 0, 0, {}], ["swish_48", 0, 0, {}]]]}, {"name": "conv2d_66", "class_name": "Conv2D", "config": {"name": "conv2d_66", "trainable": true, "filters": 128, "kernel_size": [1, 1], "strides": [1, 1], "padding": "same", "data_format": "channels_last", "dilation_rate": [1, 1], "activation": "linear", "use_bias": false, "kernel_initializer": {"class_name": "EfficientConv2DKernelInitializer", "config": {}}, "bias_initializer": {"class_name": "Zeros", "config": {}}, "kernel_regularizer": null, "bias_regularizer": null, "activity_regularizer": null, "kernel_constraint": null, "bias_constraint": null}, "inbound_nodes": [[["multiply_17", 0, 0, {}]]]}, {"name": "group_normalization_49", "class_name": "GroupNormalization", "config": {"name": "group_normalization_49", "trainable": true, "groups": 32, "axis": -1, "epsilon": 1e-05, "center": true, "scale": true, "beta_initializer": {"class_name": "Zeros", "config": {}}, "gamma_initializer": {"class_name": "Ones", "config": {}}, "beta_regularizer": null, "gamma_regularizer": null, "beta_constraint": null, "gamma_constraint": null}, "inbound_nodes": []}, {"name": "drop_connect_13", "class_name": "DropConnect", "config": {"name": "drop_connect_13", "trainable": true, "drop_connect_rate": 0.21250000000000002}, "inbound_nodes": [[["batch_normalization_49", 0, 0, {}]]]}, {"name": "add_13", "class_name": "Add", "config": {"name": "add_13", "trainable": true}, "inbound_nodes": [[["drop_connect_13", 0, 0, {}], ["add_12", 0, 0, {}]]]}, {"name": "conv2d_67", "class_name": "Conv2D", "config": {"name": "conv2d_67", "trainable": true, "filters": 768, "kernel_size": [1, 1], "strides": [1, 1], "padding": "same", "data_format": "channels_last", "dilation_rate": [1, 1], "activation": "linear", "use_bias": false, "kernel_initializer": {"class_name": "EfficientConv2DKernelInitializer", "config": {}}, "bias_initializer": {"class_name": "Zeros", "config": {}}, "kernel_regularizer": null, "bias_regularizer": null, "activity_regularizer": null, "kernel_constraint": null, "bias_constraint": null}, "inbound_nodes": [[["add_13", 0, 0, {}]]]}, {"name": "group_normalization_50", "class_name": "GroupNormalization", "config": {"name": "group_normalization_50", "trainable": true, "groups": 32, "axis": -1, "epsilon": 1e-05, "center": true, "scale": true, "beta_initializer": {"class_name": "Zeros", "config": {}}, "gamma_initializer": {"class_name": "Ones", "config": {}}, "beta_regularizer": null, "gamma_regularizer": null, "beta_constraint": null, "gamma_constraint": null}, "inbound_nodes": []}, {"name": "swish_50", "class_name": "Swish", "config": {"name": "swish_50", "trainable": true}, "inbound_nodes": [[["batch_normalization_50", 0, 0, {}]]]}, {"name": "depthwise_conv2d_18", "class_name": "DepthwiseConv2D", "config": {"name": "depthwise_conv2d_18", "trainable": true, "kernel_size": [3, 3], "strides": [1, 1], "padding": "same", "data_format": "channels_last", "dilation_rate": [1, 1], "activation": "linear", "use_bias": false, "bias_initializer": {"class_name": "Zeros", "config": {}}, "bias_regularizer": null, "activity_regularizer": null, "bias_constraint": null, "depth_multiplier": 1, "depthwise_initializer": {"class_name": "EfficientConv2DKernelInitializer", "config": {}}, "depthwise_regularizer": null, "depthwise_constraint": null}, "inbound_nodes": [[["swish_50", 0, 0, {}]]]}, {"name": "group_normalization_51", "class_name": "GroupNormalization", "config": {"name": "group_normalization_51", "trainable": true, "groups": 32, "axis": -1, "epsilon": 1e-05, "center": true, "scale": true, "beta_initializer": {"class_name": "Zeros", "config": {}}, "gamma_initializer": {"class_name": "Ones", "config": {}}, "beta_regularizer": null, "gamma_regularizer": null, "beta_constraint": null, "gamma_constraint": null}, "inbound_nodes": []}, {"name": "swish_51", "class_name": "Swish", "config": {"name": "swish_51", "trainable": true}, "inbound_nodes": [[["batch_normalization_51", 0, 0, {}]]]}, {"name": "lambda_18", "class_name": "Lambda", "config": {"name": "lambda_18", "trainable": true, "function": ["4wEAAAAAAAAAAQAAAAUAAAATAAAAcxAAAAB0AGoBfACIAGQBZAKNA1MAKQNOVCkC2gRheGlz2ghr\nZWVwZGltcykC2gFL2gRtZWFuKQHaAWEpAdoMc3BhdGlhbF9kaW1zqQD6WC9rYWdnbGUvaW5wdXQv\nZWZmaWNpZW50bmV0L2VmZmljaWVudG5ldC1tYXN0ZXIvZWZmaWNpZW50bmV0LW1hc3Rlci9lZmZp\nY2llbnRuZXQvbW9kZWwucHnaCDxsYW1iZGE+XwAAAHMAAAAA\n", null, [[1, 2]]], "function_type": "lambda", "output_shape": null, "output_shape_type": "raw", "arguments": {}}, "inbound_nodes": [[["swish_51", 0, 0, {}]]]}, {"name": "conv2d_68", "class_name": "Conv2D", "config": {"name": "conv2d_68", "trainable": true, "filters": 32, "kernel_size": [1, 1], "strides": [1, 1], "padding": "same", "data_format": "channels_last", "dilation_rate": [1, 1], "activation": "linear", "use_bias": true, "kernel_initializer": {"class_name": "EfficientConv2DKernelInitializer", "config": {}}, "bias_initializer": {"class_name": "Zeros", "config": {}}, "kernel_regularizer": null, "bias_regularizer": null, "activity_regularizer": null, "kernel_constraint": null, "bias_constraint": null}, "inbound_nodes": [[["lambda_18", 0, 0, {}]]]}, {"name": "swish_52", "class_name": "Swish", "config": {"name": "swish_52", "trainable": true}, "inbound_nodes": [[["conv2d_68", 0, 0, {}]]]}, {"name": "conv2d_69", "class_name": "Conv2D", "config": {"name": "conv2d_69", "trainable": true, "filters": 768, "kernel_size": [1, 1], "strides": [1, 1], "padding": "same", "data_format": "channels_last", "dilation_rate": [1, 1], "activation": "linear", "use_bias": true, "kernel_initializer": {"class_name": "EfficientConv2DKernelInitializer", "config": {}}, "bias_initializer": {"class_name": "Zeros", "config": {}}, "kernel_regularizer": null, "bias_regularizer": null, "activity_regularizer": null, "kernel_constraint": null, "bias_constraint": null}, "inbound_nodes": [[["swish_52", 0, 0, {}]]]}, {"name": "activation_18", "class_name": "Activation", "config": {"name": "activation_18", "trainable": true, "activation": "sigmoid"}, "inbound_nodes": [[["conv2d_69", 0, 0, {}]]]}, {"name": "multiply_18", "class_name": "Multiply", "config": {"name": "multiply_18", "trainable": true}, "inbound_nodes": [[["activation_18", 0, 0, {}], ["swish_51", 0, 0, {}]]]}, {"name": "conv2d_70", "class_name": "Conv2D", "config": {"name": "conv2d_70", "trainable": true, "filters": 128, "kernel_size": [1, 1], "strides": [1, 1], "padding": "same", "data_format": "channels_last", "dilation_rate": [1, 1], "activation": "linear", "use_bias": false, "kernel_initializer": {"class_name": "EfficientConv2DKernelInitializer", "config": {}}, "bias_initializer": {"class_name": "Zeros", "config": {}}, "kernel_regularizer": null, "bias_regularizer": null, "activity_regularizer": null, "kernel_constraint": null, "bias_constraint": null}, "inbound_nodes": [[["multiply_18", 0, 0, {}]]]}, {"name": "group_normalization_52", "class_name": "GroupNormalization", "config": {"name": "group_normalization_52", "trainable": true, "groups": 32, "axis": -1, "epsilon": 1e-05, "center": true, "scale": true, "beta_initializer": {"class_name": "Zeros", "config": {}}, "gamma_initializer": {"class_name": "Ones", "config": {}}, "beta_regularizer": null, "gamma_regularizer": null, "beta_constraint": null, "gamma_constraint": null}, "inbound_nodes": []}, {"name": "drop_connect_14", "class_name": "DropConnect", "config": {"name": "drop_connect_14", "trainable": true, "drop_connect_rate": 0.225}, "inbound_nodes": [[["batch_normalization_52", 0, 0, {}]]]}, {"name": "add_14", "class_name": "Add", "config": {"name": "add_14", "trainable": true}, "inbound_nodes": [[["drop_connect_14", 0, 0, {}], ["add_13", 0, 0, {}]]]}, {"name": "conv2d_71", "class_name": "Conv2D", "config": {"name": "conv2d_71", "trainable": true, "filters": 768, "kernel_size": [1, 1], "strides": [1, 1], "padding": "same", "data_format": "channels_last", "dilation_rate": [1, 1], "activation": "linear", "use_bias": false, "kernel_initializer": {"class_name": "EfficientConv2DKernelInitializer", "config": {}}, "bias_initializer": {"class_name": "Zeros", "config": {}}, "kernel_regularizer": null, "bias_regularizer": null, "activity_regularizer": null, "kernel_constraint": null, "bias_constraint": null}, "inbound_nodes": [[["add_14", 0, 0, {}]]]}, {"name": "group_normalization_53", "class_name": "GroupNormalization", "config": {"name": "group_normalization_53", "trainable": true, "groups": 32, "axis": -1, "epsilon": 1e-05, "center": true, "scale": true, "beta_initializer": {"class_name": "Zeros", "config": {}}, "gamma_initializer": {"class_name": "Ones", "config": {}}, "beta_regularizer": null, "gamma_regularizer": null, "beta_constraint": null, "gamma_constraint": null}, "inbound_nodes": []}, {"name": "swish_53", "class_name": "Swish", "config": {"name": "swish_53", "trainable": true}, "inbound_nodes": [[["batch_normalization_53", 0, 0, {}]]]}, {"name": "depthwise_conv2d_19", "class_name": "DepthwiseConv2D", "config": {"name": "depthwise_conv2d_19", "trainable": true, "kernel_size": [3, 3], "strides": [1, 1], "padding": "same", "data_format": "channels_last", "dilation_rate": [1, 1], "activation": "linear", "use_bias": false, "bias_initializer": {"class_name": "Zeros", "config": {}}, "bias_regularizer": null, "activity_regularizer": null, "bias_constraint": null, "depth_multiplier": 1, "depthwise_initializer": {"class_name": "EfficientConv2DKernelInitializer", "config": {}}, "depthwise_regularizer": null, "depthwise_constraint": null}, "inbound_nodes": [[["swish_53", 0, 0, {}]]]}, {"name": "group_normalization_54", "class_name": "GroupNormalization", "config": {"name": "group_normalization_54", "trainable": true, "groups": 32, "axis": -1, "epsilon": 1e-05, "center": true, "scale": true, "beta_initializer": {"class_name": "Zeros", "config": {}}, "gamma_initializer": {"class_name": "Ones", "config": {}}, "beta_regularizer": null, "gamma_regularizer": null, "beta_constraint": null, "gamma_constraint": null}, "inbound_nodes": []}, {"name": "swish_54", "class_name": "Swish", "config": {"name": "swish_54", "trainable": true}, "inbound_nodes": [[["batch_normalization_54", 0, 0, {}]]]}, {"name": "lambda_19", "class_name": "Lambda", "config": {"name": "lambda_19", "trainable": true, "function": ["4wEAAAAAAAAAAQAAAAUAAAATAAAAcxAAAAB0AGoBfACIAGQBZAKNA1MAKQNOVCkC2gRheGlz2ghr\nZWVwZGltcykC2gFL2gRtZWFuKQHaAWEpAdoMc3BhdGlhbF9kaW1zqQD6WC9rYWdnbGUvaW5wdXQv\nZWZmaWNpZW50bmV0L2VmZmljaWVudG5ldC1tYXN0ZXIvZWZmaWNpZW50bmV0LW1hc3Rlci9lZmZp\nY2llbnRuZXQvbW9kZWwucHnaCDxsYW1iZGE+XwAAAHMAAAAA\n", null, [[1, 2]]], "function_type": "lambda", "output_shape": null, "output_shape_type": "raw", "arguments": {}}, "inbound_nodes": [[["swish_54", 0, 0, {}]]]}, {"name": "conv2d_72", "class_name": "Conv2D", "config": {"name": "conv2d_72", "trainable": true, "filters": 32, "kernel_size": [1, 1], "strides": [1, 1], "padding": "same", "data_format": "channels_last", "dilation_rate": [1, 1], "activation": "linear", "use_bias": true, "kernel_initializer": {"class_name": "EfficientConv2DKernelInitializer", "config": {}}, "bias_initializer": {"class_name": "Zeros", "config": {}}, "kernel_regularizer": null, "bias_regularizer": null, "activity_regularizer": null, "kernel_constraint": null, "bias_constraint": null}, "inbound_nodes": [[["lambda_19", 0, 0, {}]]]}, {"name": "swish_55", "class_name": "Swish", "config": {"name": "swish_55", "trainable": true}, "inbound_nodes": [[["conv2d_72", 0, 0, {}]]]}, {"name": "conv2d_73", "class_name": "Conv2D", "config": {"name": "conv2d_73", "trainable": true, "filters": 768, "kernel_size": [1, 1], "strides": [1, 1], "padding": "same", "data_format": "channels_last", "dilation_rate": [1, 1], "activation": "linear", "use_bias": true, "kernel_initializer": {"class_name": "EfficientConv2DKernelInitializer", "config": {}}, "bias_initializer": {"class_name": "Zeros", "config": {}}, "kernel_regularizer": null, "bias_regularizer": null, "activity_regularizer": null, "kernel_constraint": null, "bias_constraint": null}, "inbound_nodes": [[["swish_55", 0, 0, {}]]]}, {"name": "activation_19", "class_name": "Activation", "config": {"name": "activation_19", "trainable": true, "activation": "sigmoid"}, "inbound_nodes": [[["conv2d_73", 0, 0, {}]]]}, {"name": "multiply_19", "class_name": "Multiply", "config": {"name": "multiply_19", "trainable": true}, "inbound_nodes": [[["activation_19", 0, 0, {}], ["swish_54", 0, 0, {}]]]}, {"name": "conv2d_74", "class_name": "Conv2D", "config": {"name": "conv2d_74", "trainable": true, "filters": 128, "kernel_size": [1, 1], "strides": [1, 1], "padding": "same", "data_format": "channels_last", "dilation_rate": [1, 1], "activation": "linear", "use_bias": false, "kernel_initializer": {"class_name": "EfficientConv2DKernelInitializer", "config": {}}, "bias_initializer": {"class_name": "Zeros", "config": {}}, "kernel_regularizer": null, "bias_regularizer": null, "activity_regularizer": null, "kernel_constraint": null, "bias_constraint": null}, "inbound_nodes": [[["multiply_19", 0, 0, {}]]]}, {"name": "group_normalization_55", "class_name": "GroupNormalization", "config": {"name": "group_normalization_55", "trainable": true, "groups": 32, "axis": -1, "epsilon": 1e-05, "center": true, "scale": true, "beta_initializer": {"class_name": "Zeros", "config": {}}, "gamma_initializer": {"class_name": "Ones", "config": {}}, "beta_regularizer": null, "gamma_regularizer": null, "beta_constraint": null, "gamma_constraint": null}, "inbound_nodes": []}, {"name": "drop_connect_15", "class_name": "DropConnect", "config": {"name": "drop_connect_15", "trainable": true, "drop_connect_rate": 0.23750000000000002}, "inbound_nodes": [[["batch_normalization_55", 0, 0, {}]]]}, {"name": "add_15", "class_name": "Add", "config": {"name": "add_15", "trainable": true}, "inbound_nodes": [[["drop_connect_15", 0, 0, {}], ["add_14", 0, 0, {}]]]}, {"name": "conv2d_75", "class_name": "Conv2D", "config": {"name": "conv2d_75", "trainable": true, "filters": 768, "kernel_size": [1, 1], "strides": [1, 1], "padding": "same", "data_format": "channels_last", "dilation_rate": [1, 1], "activation": "linear", "use_bias": false, "kernel_initializer": {"class_name": "EfficientConv2DKernelInitializer", "config": {}}, "bias_initializer": {"class_name": "Zeros", "config": {}}, "kernel_regularizer": null, "bias_regularizer": null, "activity_regularizer": null, "kernel_constraint": null, "bias_constraint": null}, "inbound_nodes": [[["add_15", 0, 0, {}]]]}, {"name": "group_normalization_56", "class_name": "GroupNormalization", "config": {"name": "group_normalization_56", "trainable": true, "groups": 32, "axis": -1, "epsilon": 1e-05, "center": true, "scale": true, "beta_initializer": {"class_name": "Zeros", "config": {}}, "gamma_initializer": {"class_name": "Ones", "config": {}}, "beta_regularizer": null, "gamma_regularizer": null, "beta_constraint": null, "gamma_constraint": null}, "inbound_nodes": []}, {"name": "swish_56", "class_name": "Swish", "config": {"name": "swish_56", "trainable": true}, "inbound_nodes": [[["batch_normalization_56", 0, 0, {}]]]}, {"name": "depthwise_conv2d_20", "class_name": "DepthwiseConv2D", "config": {"name": "depthwise_conv2d_20", "trainable": true, "kernel_size": [3, 3], "strides": [1, 1], "padding": "same", "data_format": "channels_last", "dilation_rate": [1, 1], "activation": "linear", "use_bias": false, "bias_initializer": {"class_name": "Zeros", "config": {}}, "bias_regularizer": null, "activity_regularizer": null, "bias_constraint": null, "depth_multiplier": 1, "depthwise_initializer": {"class_name": "EfficientConv2DKernelInitializer", "config": {}}, "depthwise_regularizer": null, "depthwise_constraint": null}, "inbound_nodes": [[["swish_56", 0, 0, {}]]]}, {"name": "group_normalization_57", "class_name": "GroupNormalization", "config": {"name": "group_normalization_57", "trainable": true, "groups": 32, "axis": -1, "epsilon": 1e-05, "center": true, "scale": true, "beta_initializer": {"class_name": "Zeros", "config": {}}, "gamma_initializer": {"class_name": "Ones", "config": {}}, "beta_regularizer": null, "gamma_regularizer": null, "beta_constraint": null, "gamma_constraint": null}, "inbound_nodes": []}, {"name": "swish_57", "class_name": "Swish", "config": {"name": "swish_57", "trainable": true}, "inbound_nodes": [[["batch_normalization_57", 0, 0, {}]]]}, {"name": "lambda_20", "class_name": "Lambda", "config": {"name": "lambda_20", "trainable": true, "function": ["4wEAAAAAAAAAAQAAAAUAAAATAAAAcxAAAAB0AGoBfACIAGQBZAKNA1MAKQNOVCkC2gRheGlz2ghr\nZWVwZGltcykC2gFL2gRtZWFuKQHaAWEpAdoMc3BhdGlhbF9kaW1zqQD6WC9rYWdnbGUvaW5wdXQv\nZWZmaWNpZW50bmV0L2VmZmljaWVudG5ldC1tYXN0ZXIvZWZmaWNpZW50bmV0LW1hc3Rlci9lZmZp\nY2llbnRuZXQvbW9kZWwucHnaCDxsYW1iZGE+XwAAAHMAAAAA\n", null, [[1, 2]]], "function_type": "lambda", "output_shape": null, "output_shape_type": "raw", "arguments": {}}, "inbound_nodes": [[["swish_57", 0, 0, {}]]]}, {"name": "conv2d_76", "class_name": "Conv2D", "config": {"name": "conv2d_76", "trainable": true, "filters": 32, "kernel_size": [1, 1], "strides": [1, 1], "padding": "same", "data_format": "channels_last", "dilation_rate": [1, 1], "activation": "linear", "use_bias": true, "kernel_initializer": {"class_name": "EfficientConv2DKernelInitializer", "config": {}}, "bias_initializer": {"class_name": "Zeros", "config": {}}, "kernel_regularizer": null, "bias_regularizer": null, "activity_regularizer": null, "kernel_constraint": null, "bias_constraint": null}, "inbound_nodes": [[["lambda_20", 0, 0, {}]]]}, {"name": "swish_58", "class_name": "Swish", "config": {"name": "swish_58", "trainable": true}, "inbound_nodes": [[["conv2d_76", 0, 0, {}]]]}, {"name": "conv2d_77", "class_name": "Conv2D", "config": {"name": "conv2d_77", "trainable": true, "filters": 768, "kernel_size": [1, 1], "strides": [1, 1], "padding": "same", "data_format": "channels_last", "dilation_rate": [1, 1], "activation": "linear", "use_bias": true, "kernel_initializer": {"class_name": "EfficientConv2DKernelInitializer", "config": {}}, "bias_initializer": {"class_name": "Zeros", "config": {}}, "kernel_regularizer": null, "bias_regularizer": null, "activity_regularizer": null, "kernel_constraint": null, "bias_constraint": null}, "inbound_nodes": [[["swish_58", 0, 0, {}]]]}, {"name": "activation_20", "class_name": "Activation", "config": {"name": "activation_20", "trainable": true, "activation": "sigmoid"}, "inbound_nodes": [[["conv2d_77", 0, 0, {}]]]}, {"name": "multiply_20", "class_name": "Multiply", "config": {"name": "multiply_20", "trainable": true}, "inbound_nodes": [[["activation_20", 0, 0, {}], ["swish_57", 0, 0, {}]]]}, {"name": "conv2d_78", "class_name": "Conv2D", "config": {"name": "conv2d_78", "trainable": true, "filters": 128, "kernel_size": [1, 1], "strides": [1, 1], "padding": "same", "data_format": "channels_last", "dilation_rate": [1, 1], "activation": "linear", "use_bias": false, "kernel_initializer": {"class_name": "EfficientConv2DKernelInitializer", "config": {}}, "bias_initializer": {"class_name": "Zeros", "config": {}}, "kernel_regularizer": null, "bias_regularizer": null, "activity_regularizer": null, "kernel_constraint": null, "bias_constraint": null}, "inbound_nodes": [[["multiply_20", 0, 0, {}]]]}, {"name": "group_normalization_58", "class_name": "GroupNormalization", "config": {"name": "group_normalization_58", "trainable": true, "groups": 32, "axis": -1, "epsilon": 1e-05, "center": true, "scale": true, "beta_initializer": {"class_name": "Zeros", "config": {}}, "gamma_initializer": {"class_name": "Ones", "config": {}}, "beta_regularizer": null, "gamma_regularizer": null, "beta_constraint": null, "gamma_constraint": null}, "inbound_nodes": []}, {"name": "drop_connect_16", "class_name": "DropConnect", "config": {"name": "drop_connect_16", "trainable": true, "drop_connect_rate": 0.25}, "inbound_nodes": [[["batch_normalization_58", 0, 0, {}]]]}, {"name": "add_16", "class_name": "Add", "config": {"name": "add_16", "trainable": true}, "inbound_nodes": [[["drop_connect_16", 0, 0, {}], ["add_15", 0, 0, {}]]]}, {"name": "conv2d_79", "class_name": "Conv2D", "config": {"name": "conv2d_79", "trainable": true, "filters": 768, "kernel_size": [1, 1], "strides": [1, 1], "padding": "same", "data_format": "channels_last", "dilation_rate": [1, 1], "activation": "linear", "use_bias": false, "kernel_initializer": {"class_name": "EfficientConv2DKernelInitializer", "config": {}}, "bias_initializer": {"class_name": "Zeros", "config": {}}, "kernel_regularizer": null, "bias_regularizer": null, "activity_regularizer": null, "kernel_constraint": null, "bias_constraint": null}, "inbound_nodes": [[["add_16", 0, 0, {}]]]}, {"name": "group_normalization_59", "class_name": "GroupNormalization", "config": {"name": "group_normalization_59", "trainable": true, "groups": 32, "axis": -1, "epsilon": 1e-05, "center": true, "scale": true, "beta_initializer": {"class_name": "Zeros", "config": {}}, "gamma_initializer": {"class_name": "Ones", "config": {}}, "beta_regularizer": null, "gamma_regularizer": null, "beta_constraint": null, "gamma_constraint": null}, "inbound_nodes": []}, {"name": "swish_59", "class_name": "Swish", "config": {"name": "swish_59", "trainable": true}, "inbound_nodes": [[["batch_normalization_59", 0, 0, {}]]]}, {"name": "depthwise_conv2d_21", "class_name": "DepthwiseConv2D", "config": {"name": "depthwise_conv2d_21", "trainable": true, "kernel_size": [5, 5], "strides": [1, 1], "padding": "same", "data_format": "channels_last", "dilation_rate": [1, 1], "activation": "linear", "use_bias": false, "bias_initializer": {"class_name": "Zeros", "config": {}}, "bias_regularizer": null, "activity_regularizer": null, "bias_constraint": null, "depth_multiplier": 1, "depthwise_initializer": {"class_name": "EfficientConv2DKernelInitializer", "config": {}}, "depthwise_regularizer": null, "depthwise_constraint": null}, "inbound_nodes": [[["swish_59", 0, 0, {}]]]}, {"name": "group_normalization_60", "class_name": "GroupNormalization", "config": {"name": "group_normalization_60", "trainable": true, "groups": 32, "axis": -1, "epsilon": 1e-05, "center": true, "scale": true, "beta_initializer": {"class_name": "Zeros", "config": {}}, "gamma_initializer": {"class_name": "Ones", "config": {}}, "beta_regularizer": null, "gamma_regularizer": null, "beta_constraint": null, "gamma_constraint": null}, "inbound_nodes": []}, {"name": "swish_60", "class_name": "Swish", "config": {"name": "swish_60", "trainable": true}, "inbound_nodes": [[["batch_normalization_60", 0, 0, {}]]]}, {"name": "lambda_21", "class_name": "Lambda", "config": {"name": "lambda_21", "trainable": true, "function": ["4wEAAAAAAAAAAQAAAAUAAAATAAAAcxAAAAB0AGoBfACIAGQBZAKNA1MAKQNOVCkC2gRheGlz2ghr\nZWVwZGltcykC2gFL2gRtZWFuKQHaAWEpAdoMc3BhdGlhbF9kaW1zqQD6WC9rYWdnbGUvaW5wdXQv\nZWZmaWNpZW50bmV0L2VmZmljaWVudG5ldC1tYXN0ZXIvZWZmaWNpZW50bmV0LW1hc3Rlci9lZmZp\nY2llbnRuZXQvbW9kZWwucHnaCDxsYW1iZGE+XwAAAHMAAAAA\n", null, [[1, 2]]], "function_type": "lambda", "output_shape": null, "output_shape_type": "raw", "arguments": {}}, "inbound_nodes": [[["swish_60", 0, 0, {}]]]}, {"name": "conv2d_80", "class_name": "Conv2D", "config": {"name": "conv2d_80", "trainable": true, "filters": 32, "kernel_size": [1, 1], "strides": [1, 1], "padding": "same", "data_format": "channels_last", "dilation_rate": [1, 1], "activation": "linear", "use_bias": true, "kernel_initializer": {"class_name": "EfficientConv2DKernelInitializer", "config": {}}, "bias_initializer": {"class_name": "Zeros", "config": {}}, "kernel_regularizer": null, "bias_regularizer": null, "activity_regularizer": null, "kernel_constraint": null, "bias_constraint": null}, "inbound_nodes": [[["lambda_21", 0, 0, {}]]]}, {"name": "swish_61", "class_name": "Swish", "config": {"name": "swish_61", "trainable": true}, "inbound_nodes": [[["conv2d_80", 0, 0, {}]]]}, {"name": "conv2d_81", "class_name": "Conv2D", "config": {"name": "conv2d_81", "trainable": true, "filters": 768, "kernel_size": [1, 1], "strides": [1, 1], "padding": "same", "data_format": "channels_last", "dilation_rate": [1, 1], "activation": "linear", "use_bias": true, "kernel_initializer": {"class_name": "EfficientConv2DKernelInitializer", "config": {}}, "bias_initializer": {"class_name": "Zeros", "config": {}}, "kernel_regularizer": null, "bias_regularizer": null, "activity_regularizer": null, "kernel_constraint": null, "bias_constraint": null}, "inbound_nodes": [[["swish_61", 0, 0, {}]]]}, {"name": "activation_21", "class_name": "Activation", "config": {"name": "activation_21", "trainable": true, "activation": "sigmoid"}, "inbound_nodes": [[["conv2d_81", 0, 0, {}]]]}, {"name": "multiply_21", "class_name": "Multiply", "config": {"name": "multiply_21", "trainable": true}, "inbound_nodes": [[["activation_21", 0, 0, {}], ["swish_60", 0, 0, {}]]]}, {"name": "conv2d_82", "class_name": "Conv2D", "config": {"name": "conv2d_82", "trainable": true, "filters": 176, "kernel_size": [1, 1], "strides": [1, 1], "padding": "same", "data_format": "channels_last", "dilation_rate": [1, 1], "activation": "linear", "use_bias": false, "kernel_initializer": {"class_name": "EfficientConv2DKernelInitializer", "config": {}}, "bias_initializer": {"class_name": "Zeros", "config": {}}, "kernel_regularizer": null, "bias_regularizer": null, "activity_regularizer": null, "kernel_constraint": null, "bias_constraint": null}, "inbound_nodes": [[["multiply_21", 0, 0, {}]]]}, {"name": "group_normalization_61", "class_name": "GroupNormalization", "config": {"name": "group_normalization_61", "trainable": true, "groups": 32, "axis": -1, "epsilon": 1e-05, "center": true, "scale": true, "beta_initializer": {"class_name": "Zeros", "config": {}}, "gamma_initializer": {"class_name": "Ones", "config": {}}, "beta_regularizer": null, "gamma_regularizer": null, "beta_constraint": null, "gamma_constraint": null}, "inbound_nodes": []}, {"name": "conv2d_83", "class_name": "Conv2D", "config": {"name": "conv2d_83", "trainable": true, "filters": 1056, "kernel_size": [1, 1], "strides": [1, 1], "padding": "same", "data_format": "channels_last", "dilation_rate": [1, 1], "activation": "linear", "use_bias": false, "kernel_initializer": {"class_name": "EfficientConv2DKernelInitializer", "config": {}}, "bias_initializer": {"class_name": "Zeros", "config": {}}, "kernel_regularizer": null, "bias_regularizer": null, "activity_regularizer": null, "kernel_constraint": null, "bias_constraint": null}, "inbound_nodes": [[["batch_normalization_61", 0, 0, {}]]]}, {"name": "group_normalization_62", "class_name": "GroupNormalization", "config": {"name": "group_normalization_62", "trainable": true, "groups": 32, "axis": -1, "epsilon": 1e-05, "center": true, "scale": true, "beta_initializer": {"class_name": "Zeros", "config": {}}, "gamma_initializer": {"class_name": "Ones", "config": {}}, "beta_regularizer": null, "gamma_regularizer": null, "beta_constraint": null, "gamma_constraint": null}, "inbound_nodes": []}, {"name": "swish_62", "class_name": "Swish", "config": {"name": "swish_62", "trainable": true}, "inbound_nodes": [[["batch_normalization_62", 0, 0, {}]]]}, {"name": "depthwise_conv2d_22", "class_name": "DepthwiseConv2D", "config": {"name": "depthwise_conv2d_22", "trainable": true, "kernel_size": [5, 5], "strides": [1, 1], "padding": "same", "data_format": "channels_last", "dilation_rate": [1, 1], "activation": "linear", "use_bias": false, "bias_initializer": {"class_name": "Zeros", "config": {}}, "bias_regularizer": null, "activity_regularizer": null, "bias_constraint": null, "depth_multiplier": 1, "depthwise_initializer": {"class_name": "EfficientConv2DKernelInitializer", "config": {}}, "depthwise_regularizer": null, "depthwise_constraint": null}, "inbound_nodes": [[["swish_62", 0, 0, {}]]]}, {"name": "group_normalization_63", "class_name": "GroupNormalization", "config": {"name": "group_normalization_63", "trainable": true, "groups": 32, "axis": -1, "epsilon": 1e-05, "center": true, "scale": true, "beta_initializer": {"class_name": "Zeros", "config": {}}, "gamma_initializer": {"class_name": "Ones", "config": {}}, "beta_regularizer": null, "gamma_regularizer": null, "beta_constraint": null, "gamma_constraint": null}, "inbound_nodes": []}, {"name": "swish_63", "class_name": "Swish", "config": {"name": "swish_63", "trainable": true}, "inbound_nodes": [[["batch_normalization_63", 0, 0, {}]]]}, {"name": "lambda_22", "class_name": "Lambda", "config": {"name": "lambda_22", "trainable": true, "function": ["4wEAAAAAAAAAAQAAAAUAAAATAAAAcxAAAAB0AGoBfACIAGQBZAKNA1MAKQNOVCkC2gRheGlz2ghr\nZWVwZGltcykC2gFL2gRtZWFuKQHaAWEpAdoMc3BhdGlhbF9kaW1zqQD6WC9rYWdnbGUvaW5wdXQv\nZWZmaWNpZW50bmV0L2VmZmljaWVudG5ldC1tYXN0ZXIvZWZmaWNpZW50bmV0LW1hc3Rlci9lZmZp\nY2llbnRuZXQvbW9kZWwucHnaCDxsYW1iZGE+XwAAAHMAAAAA\n", null, [[1, 2]]], "function_type": "lambda", "output_shape": null, "output_shape_type": "raw", "arguments": {}}, "inbound_nodes": [[["swish_63", 0, 0, {}]]]}, {"name": "conv2d_84", "class_name": "Conv2D", "config": {"name": "conv2d_84", "trainable": true, "filters": 44, "kernel_size": [1, 1], "strides": [1, 1], "padding": "same", "data_format": "channels_last", "dilation_rate": [1, 1], "activation": "linear", "use_bias": true, "kernel_initializer": {"class_name": "EfficientConv2DKernelInitializer", "config": {}}, "bias_initializer": {"class_name": "Zeros", "config": {}}, "kernel_regularizer": null, "bias_regularizer": null, "activity_regularizer": null, "kernel_constraint": null, "bias_constraint": null}, "inbound_nodes": [[["lambda_22", 0, 0, {}]]]}, {"name": "swish_64", "class_name": "Swish", "config": {"name": "swish_64", "trainable": true}, "inbound_nodes": [[["conv2d_84", 0, 0, {}]]]}, {"name": "conv2d_85", "class_name": "Conv2D", "config": {"name": "conv2d_85", "trainable": true, "filters": 1056, "kernel_size": [1, 1], "strides": [1, 1], "padding": "same", "data_format": "channels_last", "dilation_rate": [1, 1], "activation": "linear", "use_bias": true, "kernel_initializer": {"class_name": "EfficientConv2DKernelInitializer", "config": {}}, "bias_initializer": {"class_name": "Zeros", "config": {}}, "kernel_regularizer": null, "bias_regularizer": null, "activity_regularizer": null, "kernel_constraint": null, "bias_constraint": null}, "inbound_nodes": [[["swish_64", 0, 0, {}]]]}, {"name": "activation_22", "class_name": "Activation", "config": {"name": "activation_22", "trainable": true, "activation": "sigmoid"}, "inbound_nodes": [[["conv2d_85", 0, 0, {}]]]}, {"name": "multiply_22", "class_name": "Multiply", "config": {"name": "multiply_22", "trainable": true}, "inbound_nodes": [[["activation_22", 0, 0, {}], ["swish_63", 0, 0, {}]]]}, {"name": "conv2d_86", "class_name": "Conv2D", "config": {"name": "conv2d_86", "trainable": true, "filters": 176, "kernel_size": [1, 1], "strides": [1, 1], "padding": "same", "data_format": "channels_last", "dilation_rate": [1, 1], "activation": "linear", "use_bias": false, "kernel_initializer": {"class_name": "EfficientConv2DKernelInitializer", "config": {}}, "bias_initializer": {"class_name": "Zeros", "config": {}}, "kernel_regularizer": null, "bias_regularizer": null, "activity_regularizer": null, "kernel_constraint": null, "bias_constraint": null}, "inbound_nodes": [[["multiply_22", 0, 0, {}]]]}, {"name": "group_normalization_64", "class_name": "GroupNormalization", "config": {"name": "group_normalization_64", "trainable": true, "groups": 32, "axis": -1, "epsilon": 1e-05, "center": true, "scale": true, "beta_initializer": {"class_name": "Zeros", "config": {}}, "gamma_initializer": {"class_name": "Ones", "config": {}}, "beta_regularizer": null, "gamma_regularizer": null, "beta_constraint": null, "gamma_constraint": null}, "inbound_nodes": []}, {"name": "drop_connect_17", "class_name": "DropConnect", "config": {"name": "drop_connect_17", "trainable": true, "drop_connect_rate": 0.275}, "inbound_nodes": [[["batch_normalization_64", 0, 0, {}]]]}, {"name": "add_17", "class_name": "Add", "config": {"name": "add_17", "trainable": true}, "inbound_nodes": [[["drop_connect_17", 0, 0, {}], ["batch_normalization_61", 0, 0, {}]]]}, {"name": "conv2d_87", "class_name": "Conv2D", "config": {"name": "conv2d_87", "trainable": true, "filters": 1056, "kernel_size": [1, 1], "strides": [1, 1], "padding": "same", "data_format": "channels_last", "dilation_rate": [1, 1], "activation": "linear", "use_bias": false, "kernel_initializer": {"class_name": "EfficientConv2DKernelInitializer", "config": {}}, "bias_initializer": {"class_name": "Zeros", "config": {}}, "kernel_regularizer": null, "bias_regularizer": null, "activity_regularizer": null, "kernel_constraint": null, "bias_constraint": null}, "inbound_nodes": [[["add_17", 0, 0, {}]]]}, {"name": "group_normalization_65", "class_name": "GroupNormalization", "config": {"name": "group_normalization_65", "trainable": true, "groups": 32, "axis": -1, "epsilon": 1e-05, "center": true, "scale": true, "beta_initializer": {"class_name": "Zeros", "config": {}}, "gamma_initializer": {"class_name": "Ones", "config": {}}, "beta_regularizer": null, "gamma_regularizer": null, "beta_constraint": null, "gamma_constraint": null}, "inbound_nodes": []}, {"name": "swish_65", "class_name": "Swish", "config": {"name": "swish_65", "trainable": true}, "inbound_nodes": [[["batch_normalization_65", 0, 0, {}]]]}, {"name": "depthwise_conv2d_23", "class_name": "DepthwiseConv2D", "config": {"name": "depthwise_conv2d_23", "trainable": true, "kernel_size": [5, 5], "strides": [1, 1], "padding": "same", "data_format": "channels_last", "dilation_rate": [1, 1], "activation": "linear", "use_bias": false, "bias_initializer": {"class_name": "Zeros", "config": {}}, "bias_regularizer": null, "activity_regularizer": null, "bias_constraint": null, "depth_multiplier": 1, "depthwise_initializer": {"class_name": "EfficientConv2DKernelInitializer", "config": {}}, "depthwise_regularizer": null, "depthwise_constraint": null}, "inbound_nodes": [[["swish_65", 0, 0, {}]]]}, {"name": "group_normalization_66", "class_name": "GroupNormalization", "config": {"name": "group_normalization_66", "trainable": true, "groups": 32, "axis": -1, "epsilon": 1e-05, "center": true, "scale": true, "beta_initializer": {"class_name": "Zeros", "config": {}}, "gamma_initializer": {"class_name": "Ones", "config": {}}, "beta_regularizer": null, "gamma_regularizer": null, "beta_constraint": null, "gamma_constraint": null}, "inbound_nodes": []}, {"name": "swish_66", "class_name": "Swish", "config": {"name": "swish_66", "trainable": true}, "inbound_nodes": [[["batch_normalization_66", 0, 0, {}]]]}, {"name": "lambda_23", "class_name": "Lambda", "config": {"name": "lambda_23", "trainable": true, "function": ["4wEAAAAAAAAAAQAAAAUAAAATAAAAcxAAAAB0AGoBfACIAGQBZAKNA1MAKQNOVCkC2gRheGlz2ghr\nZWVwZGltcykC2gFL2gRtZWFuKQHaAWEpAdoMc3BhdGlhbF9kaW1zqQD6WC9rYWdnbGUvaW5wdXQv\nZWZmaWNpZW50bmV0L2VmZmljaWVudG5ldC1tYXN0ZXIvZWZmaWNpZW50bmV0LW1hc3Rlci9lZmZp\nY2llbnRuZXQvbW9kZWwucHnaCDxsYW1iZGE+XwAAAHMAAAAA\n", null, [[1, 2]]], "function_type": "lambda", "output_shape": null, "output_shape_type": "raw", "arguments": {}}, "inbound_nodes": [[["swish_66", 0, 0, {}]]]}, {"name": "conv2d_88", "class_name": "Conv2D", "config": {"name": "conv2d_88", "trainable": true, "filters": 44, "kernel_size": [1, 1], "strides": [1, 1], "padding": "same", "data_format": "channels_last", "dilation_rate": [1, 1], "activation": "linear", "use_bias": true, "kernel_initializer": {"class_name": "EfficientConv2DKernelInitializer", "config": {}}, "bias_initializer": {"class_name": "Zeros", "config": {}}, "kernel_regularizer": null, "bias_regularizer": null, "activity_regularizer": null, "kernel_constraint": null, "bias_constraint": null}, "inbound_nodes": [[["lambda_23", 0, 0, {}]]]}, {"name": "swish_67", "class_name": "Swish", "config": {"name": "swish_67", "trainable": true}, "inbound_nodes": [[["conv2d_88", 0, 0, {}]]]}, {"name": "conv2d_89", "class_name": "Conv2D", "config": {"name": "conv2d_89", "trainable": true, "filters": 1056, "kernel_size": [1, 1], "strides": [1, 1], "padding": "same", "data_format": "channels_last", "dilation_rate": [1, 1], "activation": "linear", "use_bias": true, "kernel_initializer": {"class_name": "EfficientConv2DKernelInitializer", "config": {}}, "bias_initializer": {"class_name": "Zeros", "config": {}}, "kernel_regularizer": null, "bias_regularizer": null, "activity_regularizer": null, "kernel_constraint": null, "bias_constraint": null}, "inbound_nodes": [[["swish_67", 0, 0, {}]]]}, {"name": "activation_23", "class_name": "Activation", "config": {"name": "activation_23", "trainable": true, "activation": "sigmoid"}, "inbound_nodes": [[["conv2d_89", 0, 0, {}]]]}, {"name": "multiply_23", "class_name": "Multiply", "config": {"name": "multiply_23", "trainable": true}, "inbound_nodes": [[["activation_23", 0, 0, {}], ["swish_66", 0, 0, {}]]]}, {"name": "conv2d_90", "class_name": "Conv2D", "config": {"name": "conv2d_90", "trainable": true, "filters": 176, "kernel_size": [1, 1], "strides": [1, 1], "padding": "same", "data_format": "channels_last", "dilation_rate": [1, 1], "activation": "linear", "use_bias": false, "kernel_initializer": {"class_name": "EfficientConv2DKernelInitializer", "config": {}}, "bias_initializer": {"class_name": "Zeros", "config": {}}, "kernel_regularizer": null, "bias_regularizer": null, "activity_regularizer": null, "kernel_constraint": null, "bias_constraint": null}, "inbound_nodes": [[["multiply_23", 0, 0, {}]]]}, {"name": "group_normalization_67", "class_name": "GroupNormalization", "config": {"name": "group_normalization_67", "trainable": true, "groups": 32, "axis": -1, "epsilon": 1e-05, "center": true, "scale": true, "beta_initializer": {"class_name": "Zeros", "config": {}}, "gamma_initializer": {"class_name": "Ones", "config": {}}, "beta_regularizer": null, "gamma_regularizer": null, "beta_constraint": null, "gamma_constraint": null}, "inbound_nodes": []}, {"name": "drop_connect_18", "class_name": "DropConnect", "config": {"name": "drop_connect_18", "trainable": true, "drop_connect_rate": 0.28750000000000003}, "inbound_nodes": [[["batch_normalization_67", 0, 0, {}]]]}, {"name": "add_18", "class_name": "Add", "config": {"name": "add_18", "trainable": true}, "inbound_nodes": [[["drop_connect_18", 0, 0, {}], ["add_17", 0, 0, {}]]]}, {"name": "conv2d_91", "class_name": "Conv2D", "config": {"name": "conv2d_91", "trainable": true, "filters": 1056, "kernel_size": [1, 1], "strides": [1, 1], "padding": "same", "data_format": "channels_last", "dilation_rate": [1, 1], "activation": "linear", "use_bias": false, "kernel_initializer": {"class_name": "EfficientConv2DKernelInitializer", "config": {}}, "bias_initializer": {"class_name": "Zeros", "config": {}}, "kernel_regularizer": null, "bias_regularizer": null, "activity_regularizer": null, "kernel_constraint": null, "bias_constraint": null}, "inbound_nodes": [[["add_18", 0, 0, {}]]]}, {"name": "group_normalization_68", "class_name": "GroupNormalization", "config": {"name": "group_normalization_68", "trainable": true, "groups": 32, "axis": -1, "epsilon": 1e-05, "center": true, "scale": true, "beta_initializer": {"class_name": "Zeros", "config": {}}, "gamma_initializer": {"class_name": "Ones", "config": {}}, "beta_regularizer": null, "gamma_regularizer": null, "beta_constraint": null, "gamma_constraint": null}, "inbound_nodes": []}, {"name": "swish_68", "class_name": "Swish", "config": {"name": "swish_68", "trainable": true}, "inbound_nodes": [[["batch_normalization_68", 0, 0, {}]]]}, {"name": "depthwise_conv2d_24", "class_name": "DepthwiseConv2D", "config": {"name": "depthwise_conv2d_24", "trainable": true, "kernel_size": [5, 5], "strides": [1, 1], "padding": "same", "data_format": "channels_last", "dilation_rate": [1, 1], "activation": "linear", "use_bias": false, "bias_initializer": {"class_name": "Zeros", "config": {}}, "bias_regularizer": null, "activity_regularizer": null, "bias_constraint": null, "depth_multiplier": 1, "depthwise_initializer": {"class_name": "EfficientConv2DKernelInitializer", "config": {}}, "depthwise_regularizer": null, "depthwise_constraint": null}, "inbound_nodes": [[["swish_68", 0, 0, {}]]]}, {"name": "group_normalization_69", "class_name": "GroupNormalization", "config": {"name": "group_normalization_69", "trainable": true, "groups": 32, "axis": -1, "epsilon": 1e-05, "center": true, "scale": true, "beta_initializer": {"class_name": "Zeros", "config": {}}, "gamma_initializer": {"class_name": "Ones", "config": {}}, "beta_regularizer": null, "gamma_regularizer": null, "beta_constraint": null, "gamma_constraint": null}, "inbound_nodes": []}, {"name": "swish_69", "class_name": "Swish", "config": {"name": "swish_69", "trainable": true}, "inbound_nodes": [[["batch_normalization_69", 0, 0, {}]]]}, {"name": "lambda_24", "class_name": "Lambda", "config": {"name": "lambda_24", "trainable": true, "function": ["4wEAAAAAAAAAAQAAAAUAAAATAAAAcxAAAAB0AGoBfACIAGQBZAKNA1MAKQNOVCkC2gRheGlz2ghr\nZWVwZGltcykC2gFL2gRtZWFuKQHaAWEpAdoMc3BhdGlhbF9kaW1zqQD6WC9rYWdnbGUvaW5wdXQv\nZWZmaWNpZW50bmV0L2VmZmljaWVudG5ldC1tYXN0ZXIvZWZmaWNpZW50bmV0LW1hc3Rlci9lZmZp\nY2llbnRuZXQvbW9kZWwucHnaCDxsYW1iZGE+XwAAAHMAAAAA\n", null, [[1, 2]]], "function_type": "lambda", "output_shape": null, "output_shape_type": "raw", "arguments": {}}, "inbound_nodes": [[["swish_69", 0, 0, {}]]]}, {"name": "conv2d_92", "class_name": "Conv2D", "config": {"name": "conv2d_92", "trainable": true, "filters": 44, "kernel_size": [1, 1], "strides": [1, 1], "padding": "same", "data_format": "channels_last", "dilation_rate": [1, 1], "activation": "linear", "use_bias": true, "kernel_initializer": {"class_name": "EfficientConv2DKernelInitializer", "config": {}}, "bias_initializer": {"class_name": "Zeros", "config": {}}, "kernel_regularizer": null, "bias_regularizer": null, "activity_regularizer": null, "kernel_constraint": null, "bias_constraint": null}, "inbound_nodes": [[["lambda_24", 0, 0, {}]]]}, {"name": "swish_70", "class_name": "Swish", "config": {"name": "swish_70", "trainable": true}, "inbound_nodes": [[["conv2d_92", 0, 0, {}]]]}, {"name": "conv2d_93", "class_name": "Conv2D", "config": {"name": "conv2d_93", "trainable": true, "filters": 1056, "kernel_size": [1, 1], "strides": [1, 1], "padding": "same", "data_format": "channels_last", "dilation_rate": [1, 1], "activation": "linear", "use_bias": true, "kernel_initializer": {"class_name": "EfficientConv2DKernelInitializer", "config": {}}, "bias_initializer": {"class_name": "Zeros", "config": {}}, "kernel_regularizer": null, "bias_regularizer": null, "activity_regularizer": null, "kernel_constraint": null, "bias_constraint": null}, "inbound_nodes": [[["swish_70", 0, 0, {}]]]}, {"name": "activation_24", "class_name": "Activation", "config": {"name": "activation_24", "trainable": true, "activation": "sigmoid"}, "inbound_nodes": [[["conv2d_93", 0, 0, {}]]]}, {"name": "multiply_24", "class_name": "Multiply", "config": {"name": "multiply_24", "trainable": true}, "inbound_nodes": [[["activation_24", 0, 0, {}], ["swish_69", 0, 0, {}]]]}, {"name": "conv2d_94", "class_name": "Conv2D", "config": {"name": "conv2d_94", "trainable": true, "filters": 176, "kernel_size": [1, 1], "strides": [1, 1], "padding": "same", "data_format": "channels_last", "dilation_rate": [1, 1], "activation": "linear", "use_bias": false, "kernel_initializer": {"class_name": "EfficientConv2DKernelInitializer", "config": {}}, "bias_initializer": {"class_name": "Zeros", "config": {}}, "kernel_regularizer": null, "bias_regularizer": null, "activity_regularizer": null, "kernel_constraint": null, "bias_constraint": null}, "inbound_nodes": [[["multiply_24", 0, 0, {}]]]}, {"name": "group_normalization_70", "class_name": "GroupNormalization", "config": {"name": "group_normalization_70", "trainable": true, "groups": 32, "axis": -1, "epsilon": 1e-05, "center": true, "scale": true, "beta_initializer": {"class_name": "Zeros", "config": {}}, "gamma_initializer": {"class_name": "Ones", "config": {}}, "beta_regularizer": null, "gamma_regularizer": null, "beta_constraint": null, "gamma_constraint": null}, "inbound_nodes": []}, {"name": "drop_connect_19", "class_name": "DropConnect", "config": {"name": "drop_connect_19", "trainable": true, "drop_connect_rate": 0.30000000000000004}, "inbound_nodes": [[["batch_normalization_70", 0, 0, {}]]]}, {"name": "add_19", "class_name": "Add", "config": {"name": "add_19", "trainable": true}, "inbound_nodes": [[["drop_connect_19", 0, 0, {}], ["add_18", 0, 0, {}]]]}, {"name": "conv2d_95", "class_name": "Conv2D", "config": {"name": "conv2d_95", "trainable": true, "filters": 1056, "kernel_size": [1, 1], "strides": [1, 1], "padding": "same", "data_format": "channels_last", "dilation_rate": [1, 1], "activation": "linear", "use_bias": false, "kernel_initializer": {"class_name": "EfficientConv2DKernelInitializer", "config": {}}, "bias_initializer": {"class_name": "Zeros", "config": {}}, "kernel_regularizer": null, "bias_regularizer": null, "activity_regularizer": null, "kernel_constraint": null, "bias_constraint": null}, "inbound_nodes": [[["add_19", 0, 0, {}]]]}, {"name": "group_normalization_71", "class_name": "GroupNormalization", "config": {"name": "group_normalization_71", "trainable": true, "groups": 32, "axis": -1, "epsilon": 1e-05, "center": true, "scale": true, "beta_initializer": {"class_name": "Zeros", "config": {}}, "gamma_initializer": {"class_name": "Ones", "config": {}}, "beta_regularizer": null, "gamma_regularizer": null, "beta_constraint": null, "gamma_constraint": null}, "inbound_nodes": []}, {"name": "swish_71", "class_name": "Swish", "config": {"name": "swish_71", "trainable": true}, "inbound_nodes": [[["batch_normalization_71", 0, 0, {}]]]}, {"name": "depthwise_conv2d_25", "class_name": "DepthwiseConv2D", "config": {"name": "depthwise_conv2d_25", "trainable": true, "kernel_size": [5, 5], "strides": [1, 1], "padding": "same", "data_format": "channels_last", "dilation_rate": [1, 1], "activation": "linear", "use_bias": false, "bias_initializer": {"class_name": "Zeros", "config": {}}, "bias_regularizer": null, "activity_regularizer": null, "bias_constraint": null, "depth_multiplier": 1, "depthwise_initializer": {"class_name": "EfficientConv2DKernelInitializer", "config": {}}, "depthwise_regularizer": null, "depthwise_constraint": null}, "inbound_nodes": [[["swish_71", 0, 0, {}]]]}, {"name": "group_normalization_72", "class_name": "GroupNormalization", "config": {"name": "group_normalization_72", "trainable": true, "groups": 32, "axis": -1, "epsilon": 1e-05, "center": true, "scale": true, "beta_initializer": {"class_name": "Zeros", "config": {}}, "gamma_initializer": {"class_name": "Ones", "config": {}}, "beta_regularizer": null, "gamma_regularizer": null, "beta_constraint": null, "gamma_constraint": null}, "inbound_nodes": []}, {"name": "swish_72", "class_name": "Swish", "config": {"name": "swish_72", "trainable": true}, "inbound_nodes": [[["batch_normalization_72", 0, 0, {}]]]}, {"name": "lambda_25", "class_name": "Lambda", "config": {"name": "lambda_25", "trainable": true, "function": ["4wEAAAAAAAAAAQAAAAUAAAATAAAAcxAAAAB0AGoBfACIAGQBZAKNA1MAKQNOVCkC2gRheGlz2ghr\nZWVwZGltcykC2gFL2gRtZWFuKQHaAWEpAdoMc3BhdGlhbF9kaW1zqQD6WC9rYWdnbGUvaW5wdXQv\nZWZmaWNpZW50bmV0L2VmZmljaWVudG5ldC1tYXN0ZXIvZWZmaWNpZW50bmV0LW1hc3Rlci9lZmZp\nY2llbnRuZXQvbW9kZWwucHnaCDxsYW1iZGE+XwAAAHMAAAAA\n", null, [[1, 2]]], "function_type": "lambda", "output_shape": null, "output_shape_type": "raw", "arguments": {}}, "inbound_nodes": [[["swish_72", 0, 0, {}]]]}, {"name": "conv2d_96", "class_name": "Conv2D", "config": {"name": "conv2d_96", "trainable": true, "filters": 44, "kernel_size": [1, 1], "strides": [1, 1], "padding": "same", "data_format": "channels_last", "dilation_rate": [1, 1], "activation": "linear", "use_bias": true, "kernel_initializer": {"class_name": "EfficientConv2DKernelInitializer", "config": {}}, "bias_initializer": {"class_name": "Zeros", "config": {}}, "kernel_regularizer": null, "bias_regularizer": null, "activity_regularizer": null, "kernel_constraint": null, "bias_constraint": null}, "inbound_nodes": [[["lambda_25", 0, 0, {}]]]}, {"name": "swish_73", "class_name": "Swish", "config": {"name": "swish_73", "trainable": true}, "inbound_nodes": [[["conv2d_96", 0, 0, {}]]]}, {"name": "conv2d_97", "class_name": "Conv2D", "config": {"name": "conv2d_97", "trainable": true, "filters": 1056, "kernel_size": [1, 1], "strides": [1, 1], "padding": "same", "data_format": "channels_last", "dilation_rate": [1, 1], "activation": "linear", "use_bias": true, "kernel_initializer": {"class_name": "EfficientConv2DKernelInitializer", "config": {}}, "bias_initializer": {"class_name": "Zeros", "config": {}}, "kernel_regularizer": null, "bias_regularizer": null, "activity_regularizer": null, "kernel_constraint": null, "bias_constraint": null}, "inbound_nodes": [[["swish_73", 0, 0, {}]]]}, {"name": "activation_25", "class_name": "Activation", "config": {"name": "activation_25", "trainable": true, "activation": "sigmoid"}, "inbound_nodes": [[["conv2d_97", 0, 0, {}]]]}, {"name": "multiply_25", "class_name": "Multiply", "config": {"name": "multiply_25", "trainable": true}, "inbound_nodes": [[["activation_25", 0, 0, {}], ["swish_72", 0, 0, {}]]]}, {"name": "conv2d_98", "class_name": "Conv2D", "config": {"name": "conv2d_98", "trainable": true, "filters": 176, "kernel_size": [1, 1], "strides": [1, 1], "padding": "same", "data_format": "channels_last", "dilation_rate": [1, 1], "activation": "linear", "use_bias": false, "kernel_initializer": {"class_name": "EfficientConv2DKernelInitializer", "config": {}}, "bias_initializer": {"class_name": "Zeros", "config": {}}, "kernel_regularizer": null, "bias_regularizer": null, "activity_regularizer": null, "kernel_constraint": null, "bias_constraint": null}, "inbound_nodes": [[["multiply_25", 0, 0, {}]]]}, {"name": "group_normalization_73", "class_name": "GroupNormalization", "config": {"name": "group_normalization_73", "trainable": true, "groups": 32, "axis": -1, "epsilon": 1e-05, "center": true, "scale": true, "beta_initializer": {"class_name": "Zeros", "config": {}}, "gamma_initializer": {"class_name": "Ones", "config": {}}, "beta_regularizer": null, "gamma_regularizer": null, "beta_constraint": null, "gamma_constraint": null}, "inbound_nodes": []}, {"name": "drop_connect_20", "class_name": "DropConnect", "config": {"name": "drop_connect_20", "trainable": true, "drop_connect_rate": 0.3125}, "inbound_nodes"…
hwise_constraint": null}, "inbound_nodes": [[["swish_92", 0, 0, {}]]]}, {"name": "group_normalization_93", "class_name": "GroupNormalization", "config": {"name": "group_normalization_93", "trainable": true, "groups": 32, "axis": -1, "epsilon": 1e-05, "center": true, "scale": true, "beta_initializer": {"class_name": "Zeros", "config": {}}, "gamma_initializer": {"class_name": "Ones", "config": {}}, "beta_regularizer": null, "gamma_regularizer": null, "beta_constraint": null, "gamma_constraint": null}, "inbound_nodes": []}, {"name": "swish_93", "class_name": "Swish", "config": {"name": "swish_93", "trainable": true}, "inbound_nodes": [[["batch_normalization_93", 0, 0, {}]]]}, {"name": "lambda_32", "class_name": "Lambda", "config": {"name": "lambda_32", "trainable": true, "function": ["4wEAAAAAAAAAAQAAAAUAAAATAAAAcxAAAAB0AGoBfACIAGQBZAKNA1MAKQNOVCkC2gRheGlz2ghr\nZWVwZGltcykC2gFL2gRtZWFuKQHaAWEpAdoMc3BhdGlhbF9kaW1zqQD6WC9rYWdnbGUvaW5wdXQv\nZWZmaWNpZW50bmV0L2VmZmljaWVudG5ldC1tYXN0ZXIvZWZmaWNpZW50bmV0LW1hc3Rlci9lZmZp\nY2llbnRuZXQvbW9kZWwucHnaCDxsYW1iZGE+XwAAAHMAAAAA\n", null, [[1, 2]]], "function_type": "lambda", "output_shape": null, "output_shape_type": "raw", "arguments": {}}, "inbound_nodes": [[["swish_93", 0, 0, {}]]]}, {"name": "conv2d_124", "class_name": "Conv2D", "config": {"name": "conv2d_124", "trainable": true, "filters": 76, "kernel_size": [1, 1], "strides": [1, 1], "padding": "same", "data_format": "channels_last", "dilation_rate": [1, 1], "activation": "linear", "use_bias": true, "kernel_initializer": {"class_name": "EfficientConv2DKernelInitializer", "config": {}}, "bias_initializer": {"class_name": "Zeros", "config": {}}, "kernel_regularizer": null, "bias_regularizer": null, "activity_regularizer": null, "kernel_constraint": null, "bias_constraint": null}, "inbound_nodes": [[["lambda_32", 0, 0, {}]]]}, {"name": "swish_94", "class_name": "Swish", "config": {"name": "swish_94", "trainable": true}, "inbound_nodes": [[["conv2d_124", 0, 0, {}]]]}, {"name": "conv2d_125", "class_name": "Conv2D", "config": {"name": "conv2d_125", "trainable": true, "filters": 1824, "kernel_size": [1, 1], "strides": [1, 1], "padding": "same", "data_format": "channels_last", "dilation_rate": [1, 1], "activation": "linear", "use_bias": true, "kernel_initializer": {"class_name": "EfficientConv2DKernelInitializer", "config": {}}, "bias_initializer": {"class_name": "Zeros", "config": {}}, "kernel_regularizer": null, "bias_regularizer": null, "activity_regularizer": null, "kernel_constraint": null, "bias_constraint": null}, "inbound_nodes": [[["swish_94", 0, 0, {}]]]}, {"name": "activation_32", "class_name": "Activation", "config": {"name": "activation_32", "trainable": true, "activation": "sigmoid"}, "inbound_nodes": [[["conv2d_125", 0, 0, {}]]]}, {"name": "multiply_32", "class_name": "Multiply", "config": {"name": "multiply_32", "trainable": true}, "inbound_nodes": [[["activation_32", 0, 0, {}], ["swish_93", 0, 0, {}]]]}, {"name": "conv2d_126", "class_name": "Conv2D", "config": {"name": "conv2d_126", "trainable": true, "filters": 304, "kernel_size": [1, 1], "strides": [1, 1], "padding": "same", "data_format": "channels_last", "dilation_rate": [1, 1], "activation": "linear", "use_bias": false, "kernel_initializer": {"class_name": "EfficientConv2DKernelInitializer", "config": {}}, "bias_initializer": {"class_name": "Zeros", "config": {}}, "kernel_regularizer": null, "bias_regularizer": null, "activity_regularizer": null, "kernel_constraint": null, "bias_constraint": null}, "inbound_nodes": [[["multiply_32", 0, 0, {}]]]}, {"name": "group_normalization_94", "class_name": "GroupNormalization", "config": {"name": "group_normalization_94", "trainable": true, "groups": 32, "axis": -1, "epsilon": 1e-05, "center": true, "scale": true, "beta_initializer": {"class_name": "Zeros", "config": {}}, "gamma_initializer": {"class_name": "Ones", "config": {}}, "beta_regularizer": null, "gamma_regularizer": null, "beta_constraint": null, "gamma_constraint": null}, "inbound_nodes": []}, {"name": "drop_connect_26", "class_name": "DropConnect", "config": {"name": "drop_connect_26", "trainable": true, "drop_connect_rate": 0.4}, "inbound_nodes": [[["batch_normalization_94", 0, 0, {}]]]}, {"name": "add_26", "class_name": "Add", "config": {"name": "add_26", "trainable": true}, "inbound_nodes": [[["drop_connect_26", 0, 0, {}], ["add_25", 0, 0, {}]]]}, {"name": "conv2d_127", "class_name": "Conv2D", "config": {"name": "conv2d_127", "trainable": true, "filters": 1824, "kernel_size": [1, 1], "strides": [1, 1], "padding": "same", "data_format": "channels_last", "dilation_rate": [1, 1], "activation": "linear", "use_bias": false, "kernel_initializer": {"class_name": "EfficientConv2DKernelInitializer", "config": {}}, "bias_initializer": {"class_name": "Zeros", "config": {}}, "kernel_regularizer": null, "bias_regularizer": null, "activity_regularizer": null, "kernel_constraint": null, "bias_constraint": null}, "inbound_nodes": [[["add_26", 0, 0, {}]]]}, {"name": "group_normalization_95", "class_name": "GroupNormalization", "config": {"name": "group_normalization_95", "trainable": true, "groups": 32, "axis": -1, "epsilon": 1e-05, "center": true, "scale": true, "beta_initializer": {"class_name": "Zeros", "config": {}}, "gamma_initializer": {"class_name": "Ones", "config": {}}, "beta_regularizer": null, "gamma_regularizer": null, "beta_constraint": null, "gamma_constraint": null}, "inbound_nodes": []}, {"name": "swish_95", "class_name": "Swish", "config": {"name": "swish_95", "trainable": true}, "inbound_nodes": [[["batch_normalization_95", 0, 0, {}]]]}, {"name": "depthwise_conv2d_33", "class_name": "DepthwiseConv2D", "config": {"name": "depthwise_conv2d_33", "trainable": true, "kernel_size": [5, 5], "strides": [1, 1], "padding": "same", "data_format": "channels_last", "dilation_rate": [1, 1], "activation": "linear", "use_bias": false, "bias_initializer": {"class_name": "Zeros", "config": {}}, "bias_regularizer": null, "activity_regularizer": null, "bias_constraint": null, "depth_multiplier": 1, "depthwise_initializer": {"class_name": "EfficientConv2DKernelInitializer", "config": {}}, "depthwise_regularizer": null, "depthwise_constraint": null}, "inbound_nodes": [[["swish_95", 0, 0, {}]]]}, {"name": "group_normalization_96", "class_name": "GroupNormalization", "config": {"name": "group_normalization_96", "trainable": true, "groups": 32, "axis": -1, "epsilon": 1e-05, "center": true, "scale": true, "beta_initializer": {"class_name": "Zeros", "config": {}}, "gamma_initializer": {"class_name": "Ones", "config": {}}, "beta_regularizer": null, "gamma_regularizer": null, "beta_constraint": null, "gamma_constraint": null}, "inbound_nodes": []}, {"name": "swish_96", "class_name": "Swish", "config": {"name": "swish_96", "trainable": true}, "inbound_nodes": [[["batch_normalization_96", 0, 0, {}]]]}, {"name": "lambda_33", "class_name": "Lambda", "config": {"name": "lambda_33", "trainable": true, "function": ["4wEAAAAAAAAAAQAAAAUAAAATAAAAcxAAAAB0AGoBfACIAGQBZAKNA1MAKQNOVCkC2gRheGlz2ghr\nZWVwZGltcykC2gFL2gRtZWFuKQHaAWEpAdoMc3BhdGlhbF9kaW1zqQD6WC9rYWdnbGUvaW5wdXQv\nZWZmaWNpZW50bmV0L2VmZmljaWVudG5ldC1tYXN0ZXIvZWZmaWNpZW50bmV0LW1hc3Rlci9lZmZp\nY2llbnRuZXQvbW9kZWwucHnaCDxsYW1iZGE+XwAAAHMAAAAA\n", null, [[1, 2]]], "function_type": "lambda", "output_shape": null, "output_shape_type": "raw", "arguments": {}}, "inbound_nodes": [[["swish_96", 0, 0, {}]]]}, {"name": "conv2d_128", "class_name": "Conv2D", "config": {"name": "conv2d_128", "trainable": true, "filters": 76, "kernel_size": [1, 1], "strides": [1, 1], "padding": "same", "data_format": "channels_last", "dilation_rate": [1, 1], "activation": "linear", "use_bias": true, "kernel_initializer": {"class_name": "EfficientConv2DKernelInitializer", "config": {}}, "bias_initializer": {"class_name": "Zeros", "config": {}}, "kernel_regularizer": null, "bias_regularizer": null, "activity_regularizer": null, "kernel_constraint": null, "bias_constraint": null}, "inbound_nodes": [[["lambda_33", 0, 0, {}]]]}, {"name": "swish_97", "class_name": "Swish", "config": {"name": "swish_97", "trainable": true}, "inbound_nodes": [[["conv2d_128", 0, 0, {}]]]}, {"name": "conv2d_129", "class_name": "Conv2D", "config": {"name": "conv2d_129", "trainable": true, "filters": 1824, "kernel_size": [1, 1], "strides": [1, 1], "padding": "same", "data_format": "channels_last", "dilation_rate": [1, 1], "activation": "linear", "use_bias": true, "kernel_initializer": {"class_name": "EfficientConv2DKernelInitializer", "config": {}}, "bias_initializer": {"class_name": "Zeros", "config": {}}, "kernel_regularizer": null, "bias_regularizer": null, "activity_regularizer": null, "kernel_constraint": null, "bias_constraint": null}, "inbound_nodes": [[["swish_97", 0, 0, {}]]]}, {"name": "activation_33", "class_name": "Activation", "config": {"name": "activation_33", "trainable": true, "activation": "sigmoid"}, "inbound_nodes": [[["conv2d_129", 0, 0, {}]]]}, {"name": "multiply_33", "class_name": "Multiply", "config": {"name": "multiply_33", "trainable": true}, "inbound_nodes": [[["activation_33", 0, 0, {}], ["swish_96", 0, 0, {}]]]}, {"name": "conv2d_130", "class_name": "Conv2D", "config": {"name": "conv2d_130", "trainable": true, "filters": 304, "kernel_size": [1, 1], "strides": [1, 1], "padding": "same", "data_format": "channels_last", "dilation_rate": [1, 1], "activation": "linear", "use_bias": false, "kernel_initializer": {"class_name": "EfficientConv2DKernelInitializer", "config": {}}, "bias_initializer": {"class_name": "Zeros", "config": {}}, "kernel_regularizer": null, "bias_regularizer": null, "activity_regularizer": null, "kernel_constraint": null, "bias_constraint": null}, "inbound_nodes": [[["multiply_33", 0, 0, {}]]]}, {"name": "group_normalization_97", "class_name": "GroupNormalization", "config": {"name": "group_normalization_97", "trainable": true, "groups": 32, "axis": -1, "epsilon": 1e-05, "center": true, "scale": true, "beta_initializer": {"class_name": "Zeros", "config": {}}, "gamma_initializer": {"class_name": "Ones", "config": {}}, "beta_regularizer": null, "gamma_regularizer": null, "beta_constraint": null, "gamma_constraint": null}, "inbound_nodes": []}, {"name": "drop_connect_27", "class_name": "DropConnect", "config": {"name": "drop_connect_27", "trainable": true, "drop_connect_rate": 0.41250000000000003}, "inbound_nodes": [[["batch_normalization_97", 0, 0, {}]]]}, {"name": "add_27", "class_name": "Add", "config": {"name": "add_27", "trainable": true}, "inbound_nodes": [[["drop_connect_27", 0, 0, {}], ["add_26", 0, 0, {}]]]}, {"name": "conv2d_131", "class_name": "Conv2D", "config": {"name": "conv2d_131", "trainable": true, "filters": 1824, "kernel_size": [1, 1], "strides": [1, 1], "padding": "same", "data_format": "channels_last", "dilation_rate": [1, 1], "activation": "linear", "use_bias": false, "kernel_initializer": {"class_name": "EfficientConv2DKernelInitializer", "config": {}}, "bias_initializer": {"class_name": "Zeros", "config": {}}, "kernel_regularizer": null, "bias_regularizer": null, "activity_regularizer": null, "kernel_constraint": null, "bias_constraint": null}, "inbound_nodes": [[["add_27", 0, 0, {}]]]}, {"name": "group_normalization_98", "class_name": "GroupNormalization", "config": {"name": "group_normalization_98", "trainable": true, "groups": 32, "axis": -1, "epsilon": 1e-05, "center": true, "scale": true, "beta_initializer": {"class_name": "Zeros", "config": {}}, "gamma_initializer": {"class_name": "Ones", "config": {}}, "beta_regularizer": null, "gamma_regularizer": null, "beta_constraint": null, "gamma_constraint": null}, "inbound_nodes": []}, {"name": "swish_98", "class_name": "Swish", "config": {"name": "swish_98", "trainable": true}, "inbound_nodes": [[["batch_normalization_98", 0, 0, {}]]]}, {"name": "depthwise_conv2d_34", "class_name": "DepthwiseConv2D", "config": {"name": "depthwise_conv2d_34", "trainable": true, "kernel_size": [5, 5], "strides": [1, 1], "padding": "same", "data_format": "channels_last", "dilation_rate": [1, 1], "activation": "linear", "use_bias": false, "bias_initializer": {"class_name": "Zeros", "config": {}}, "bias_regularizer": null, "activity_regularizer": null, "bias_constraint": null, "depth_multiplier": 1, "depthwise_initializer": {"class_name": "EfficientConv2DKernelInitializer", "config": {}}, "depthwise_regularizer": null, "depthwise_constraint": null}, "inbound_nodes": [[["swish_98", 0, 0, {}]]]}, {"name": "group_normalization_99", "class_name": "GroupNormalization", "config": {"name": "group_normalization_99", "trainable": true, "groups": 32, "axis": -1, "epsilon": 1e-05, "center": true, "scale": true, "beta_initializer": {"class_name": "Zeros", "config": {}}, "gamma_initializer": {"class_name": "Ones", "config": {}}, "beta_regularizer": null, "gamma_regularizer": null, "beta_constraint": null, "gamma_constraint": null}, "inbound_nodes": []}, {"name": "swish_99", "class_name": "Swish", "config": {"name": "swish_99", "trainable": true}, "inbound_nodes": [[["batch_normalization_99", 0, 0, {}]]]}, {"name": "lambda_34", "class_name": "Lambda", "config": {"name": "lambda_34", "trainable": true, "function": ["4wEAAAAAAAAAAQAAAAUAAAATAAAAcxAAAAB0AGoBfACIAGQBZAKNA1MAKQNOVCkC2gRheGlz2ghr\nZWVwZGltcykC2gFL2gRtZWFuKQHaAWEpAdoMc3BhdGlhbF9kaW1zqQD6WC9rYWdnbGUvaW5wdXQv\nZWZmaWNpZW50bmV0L2VmZmljaWVudG5ldC1tYXN0ZXIvZWZmaWNpZW50bmV0LW1hc3Rlci9lZmZp\nY2llbnRuZXQvbW9kZWwucHnaCDxsYW1iZGE+XwAAAHMAAAAA\n", null, [[1, 2]]], "function_type": "lambda", "output_shape": null, "output_shape_type": "raw", "arguments": {}}, "inbound_nodes": [[["swish_99", 0, 0, {}]]]}, {"name": "conv2d_132", "class_name": "Conv2D", "config": {"name": "conv2d_132", "trainable": true, "filters": 76, "kernel_size": [1, 1], "strides": [1, 1], "padding": "same", "data_format": "channels_last", "dilation_rate": [1, 1], "activation": "linear", "use_bias": true, "kernel_initializer": {"class_name": "EfficientConv2DKernelInitializer", "config": {}}, "bias_initializer": {"class_name": "Zeros", "config": {}}, "kernel_regularizer": null, "bias_regularizer": null, "activity_regularizer": null, "kernel_constraint": null, "bias_constraint": null}, "inbound_nodes": [[["lambda_34", 0, 0, {}]]]}, {"name": "swish_100", "class_name": "Swish", "config": {"name": "swish_100", "trainable": true}, "inbound_nodes": [[["conv2d_132", 0, 0, {}]]]}, {"name": "conv2d_133", "class_name": "Conv2D", "config": {"name": "conv2d_133", "trainable": true, "filters": 1824, "kernel_size": [1, 1], "strides": [1, 1], "padding": "same", "data_format": "channels_last", "dilation_rate": [1, 1], "activation": "linear", "use_bias": true, "kernel_initializer": {"class_name": "EfficientConv2DKernelInitializer", "config": {}}, "bias_initializer": {"class_name": "Zeros", "config": {}}, "kernel_regularizer": null, "bias_regularizer": null, "activity_regularizer": null, "kernel_constraint": null, "bias_constraint": null}, "inbound_nodes": [[["swish_100", 0, 0, {}]]]}, {"name": "activation_34", "class_name": "Activation", "config": {"name": "activation_34", "trainable": true, "activation": "sigmoid"}, "inbound_nodes": [[["conv2d_133", 0, 0, {}]]]}, {"name": "multiply_34", "class_name": "Multiply", "config": {"name": "multiply_34", "trainable": true}, "inbound_nodes": [[["activation_34", 0, 0, {}], ["swish_99", 0, 0, {}]]]}, {"name": "conv2d_134", "class_name": "Conv2D", "config": {"name": "conv2d_134", "trainable": true, "filters": 304, "kernel_size": [1, 1], "strides": [1, 1], "padding": "same", "data_format": "channels_last", "dilation_rate": [1, 1], "activation": "linear", "use_bias": false, "kernel_initializer": {"class_name": "EfficientConv2DKernelInitializer", "config": {}}, "bias_initializer": {"class_name": "Zeros", "config": {}}, "kernel_regularizer": null, "bias_regularizer": null, "activity_regularizer": null, "kernel_constraint": null, "bias_constraint": null}, "inbound_nodes": [[["multiply_34", 0, 0, {}]]]}, {"name": "group_normalization_100", "class_name": "GroupNormalization", "config": {"name": "group_normalization_100", "trainable": true, "groups": 32, "axis": -1, "epsilon": 1e-05, "center": true, "scale": true, "beta_initializer": {"class_name": "Zeros", "config": {}}, "gamma_initializer": {"class_name": "Ones", "config": {}}, "beta_regularizer": null, "gamma_regularizer": null, "beta_constraint": null, "gamma_constraint": null}, "inbound_nodes": []}, {"name": "drop_connect_28", "class_name": "DropConnect", "config": {"name": "drop_connect_28", "trainable": true, "drop_connect_rate": 0.42500000000000004}, "inbound_nodes": [[["batch_normalization_100", 0, 0, {}]]]}, {"name": "add_28", "class_name": "Add", "config": {"name": "add_28", "trainable": true}, "inbound_nodes": [[["drop_connect_28", 0, 0, {}], ["add_27", 0, 0, {}]]]}, {"name": "conv2d_135", "class_name": "Conv2D", "config": {"name": "conv2d_135", "trainable": true, "filters": 1824, "kernel_size": [1, 1], "strides": [1, 1], "padding": "same", "data_format": "channels_last", "dilation_rate": [1, 1], "activation": "linear", "use_bias": false, "kernel_initializer": {"class_name": "EfficientConv2DKernelInitializer", "config": {}}, "bias_initializer": {"class_name": "Zeros", "config": {}}, "kernel_regularizer": null, "bias_regularizer": null, "activity_regularizer": null, "kernel_constraint": null, "bias_constraint": null}, "inbound_nodes": [[["add_28", 0, 0, {}]]]}, {"name": "group_normalization_101", "class_name": "GroupNormalization", "config": {"name": "group_normalization_101", "trainable": true, "groups": 32, "axis": -1, "epsilon": 1e-05, "center": true, "scale": true, "beta_initializer": {"class_name": "Zeros", "config": {}}, "gamma_initializer": {"class_name": "Ones", "config": {}}, "beta_regularizer": null, "gamma_regularizer": null, "beta_constraint": null, "gamma_constraint": null}, "inbound_nodes": []}, {"name": "swish_101", "class_name": "Swish", "config": {"name": "swish_101", "trainable": true}, "inbound_nodes": [[["batch_normalization_101", 0, 0, {}]]]}, {"name": "depthwise_conv2d_35", "class_name": "DepthwiseConv2D", "config": {"name": "depthwise_conv2d_35", "trainable": true, "kernel_size": [5, 5], "strides": [1, 1], "padding": "same", "data_format": "channels_last", "dilation_rate": [1, 1], "activation": "linear", "use_bias": false, "bias_initializer": {"class_name": "Zeros", "config": {}}, "bias_regularizer": null, "activity_regularizer": null, "bias_constraint": null, "depth_multiplier": 1, "depthwise_initializer": {"class_name": "EfficientConv2DKernelInitializer", "config": {}}, "depthwise_regularizer": null, "depthwise_constraint": null}, "inbound_nodes": [[["swish_101", 0, 0, {}]]]}, {"name": "group_normalization_102", "class_name": "GroupNormalization", "config": {"name": "group_normalization_102", "trainable": true, "groups": 32, "axis": -1, "epsilon": 1e-05, "center": true, "scale": true, "beta_initializer": {"class_name": "Zeros", "config": {}}, "gamma_initializer": {"class_name": "Ones", "config": {}}, "beta_regularizer": null, "gamma_regularizer": null, "beta_constraint": null, "gamma_constraint": null}, "inbound_nodes": []}, {"name": "swish_102", "class_name": "Swish", "config": {"name": "swish_102", "trainable": true}, "inbound_nodes": [[["batch_normalization_102", 0, 0, {}]]]}, {"name": "lambda_35", "class_name": "Lambda", "config": {"name": "lambda_35", "trainable": true, "function": ["4wEAAAAAAAAAAQAAAAUAAAATAAAAcxAAAAB0AGoBfACIAGQBZAKNA1MAKQNOVCkC2gRheGlz2ghr\nZWVwZGltcykC2gFL2gRtZWFuKQHaAWEpAdoMc3BhdGlhbF9kaW1zqQD6WC9rYWdnbGUvaW5wdXQv\nZWZmaWNpZW50bmV0L2VmZmljaWVudG5ldC1tYXN0ZXIvZWZmaWNpZW50bmV0LW1hc3Rlci9lZmZp\nY2llbnRuZXQvbW9kZWwucHnaCDxsYW1iZGE+XwAAAHMAAAAA\n", null, [[1, 2]]], "function_type": "lambda", "output_shape": null, "output_shape_type": "raw", "arguments": {}}, "inbound_nodes": [[["swish_102", 0, 0, {}]]]}, {"name": "conv2d_136", "class_name": "Conv2D", "config": {"name": "conv2d_136", "trainable": true, "filters": 76, "kernel_size": [1, 1], "strides": [1, 1], "padding": "same", "data_format": "channels_last", "dilation_rate": [1, 1], "activation": "linear", "use_bias": true, "kernel_initializer": {"class_name": "EfficientConv2DKernelInitializer", "config": {}}, "bias_initializer": {"class_name": "Zeros", "config": {}}, "kernel_regularizer": null, "bias_regularizer": null, "activity_regularizer": null, "kernel_constraint": null, "bias_constraint": null}, "inbound_nodes": [[["lambda_35", 0, 0, {}]]]}, {"name": "swish_103", "class_name": "Swish", "config": {"name": "swish_103", "trainable": true}, "inbound_nodes": [[["conv2d_136", 0, 0, {}]]]}, {"name": "conv2d_137", "class_name": "Conv2D", "config": {"name": "conv2d_137", "trainable": true, "filters": 1824, "kernel_size": [1, 1], "strides": [1, 1], "padding": "same", "data_format": "channels_last", "dilation_rate": [1, 1], "activation": "linear", "use_bias": true, "kernel_initializer": {"class_name": "EfficientConv2DKernelInitializer", "config": {}}, "bias_initializer": {"class_name": "Zeros", "config": {}}, "kernel_regularizer": null, "bias_regularizer": null, "activity_regularizer": null, "kernel_constraint": null, "bias_constraint": null}, "inbound_nodes": [[["swish_103", 0, 0, {}]]]}, {"name": "activation_35", "class_name": "Activation", "config": {"name": "activation_35", "trainable": true, "activation": "sigmoid"}, "inbound_nodes": [[["conv2d_137", 0, 0, {}]]]}, {"name": "multiply_35", "class_name": "Multiply", "config": {"name": "multiply_35", "trainable": true}, "inbound_nodes": [[["activation_35", 0, 0, {}], ["swish_102", 0, 0, {}]]]}, {"name": "conv2d_138", "class_name": "Conv2D", "config": {"name": "conv2d_138", "trainable": true, "filters": 304, "kernel_size": [1, 1], "strides": [1, 1], "padding": "same", "data_format": "channels_last", "dilation_rate": [1, 1], "activation": "linear", "use_bias": false, "kernel_initializer": {"class_name": "EfficientConv2DKernelInitializer", "config": {}}, "bias_initializer": {"class_name": "Zeros", "config": {}}, "kernel_regularizer": null, "bias_regularizer": null, "activity_regularizer": null, "kernel_constraint": null, "bias_constraint": null}, "inbound_nodes": [[["multiply_35", 0, 0, {}]]]}, {"name": "group_normalization_103", "class_name": "GroupNormalization", "config": {"name": "group_normalization_103", "trainable": true, "groups": 32, "axis": -1, "epsilon": 1e-05, "center": true, "scale": true, "beta_initializer": {"class_name": "Zeros", "config": {}}, "gamma_initializer": {"class_name": "Ones", "config": {}}, "beta_regularizer": null, "gamma_regularizer": null, "beta_constraint": null, "gamma_constraint": null}, "inbound_nodes": []}, {"name": "drop_connect_29", "class_name": "DropConnect", "config": {"name": "drop_connect_29", "trainable": true, "drop_connect_rate": 0.4375}, "inbound_nodes": [[["batch_normalization_103", 0, 0, {}]]]}, {"name": "add_29", "class_name": "Add", "config": {"name": "add_29", "trainable": true}, "inbound_nodes": [[["drop_connect_29", 0, 0, {}], ["add_28", 0, 0, {}]]]}, {"name": "conv2d_139", "class_name": "Conv2D", "config": {"name": "conv2d_139", "trainable": true, "filters": 1824, "kernel_size": [1, 1], "strides": [1, 1], "padding": "same", "data_format": "channels_last", "dilation_rate": [1, 1], "activation": "linear", "use_bias": false, "kernel_initializer": {"class_name": "EfficientConv2DKernelInitializer", "config": {}}, "bias_initializer": {"class_name": "Zeros", "config": {}}, "kernel_regularizer": null, "bias_regularizer": null, "activity_regularizer": null, "kernel_constraint": null, "bias_constraint": null}, "inbound_nodes": [[["add_29", 0, 0, {}]]]}, {"name": "group_normalization_104", "class_name": "GroupNormalization", "config": {"name": "group_normalization_104", "trainable": true, "groups": 32, "axis": -1, "epsilon": 1e-05, "center": true, "scale": true, "beta_initializer": {"class_name": "Zeros", "config": {}}, "gamma_initializer": {"class_name": "Ones", "config": {}}, "beta_regularizer": null, "gamma_regularizer": null, "beta_constraint": null, "gamma_constraint": null}, "inbound_nodes": []}, {"name": "swish_104", "class_name": "Swish", "config": {"name": "swish_104", "trainable": true}, "inbound_nodes": [[["batch_normalization_104", 0, 0, {}]]]}, {"name": "depthwise_conv2d_36", "class_name": "DepthwiseConv2D", "config": {"name": "depthwise_conv2d_36", "trainable": true, "kernel_size": [5, 5], "strides": [1, 1], "padding": "same", "data_format": "channels_last", "dilation_rate": [1, 1], "activation": "linear", "use_bias": false, "bias_initializer": {"class_name": "Zeros", "config": {}}, "bias_regularizer": null, "activity_regularizer": null, "bias_constraint": null, "depth_multiplier": 1, "depthwise_initializer": {"class_name": "EfficientConv2DKernelInitializer", "config": {}}, "depthwise_regularizer": null, "depthwise_constraint": null}, "inbound_nodes": [[["swish_104", 0, 0, {}]]]}, {"name": "group_normalization_105", "class_name": "GroupNormalization", "config": {"name": "group_normalization_105", "trainable": true, "groups": 32, "axis": -1, "epsilon": 1e-05, "center": true, "scale": true, "beta_initializer": {"class_name": "Zeros", "config": {}}, "gamma_initializer": {"class_name": "Ones", "config": {}}, "beta_regularizer": null, "gamma_regularizer": null, "beta_constraint": null, "gamma_constraint": null}, "inbound_nodes": []}, {"name": "swish_105", "class_name": "Swish", "config": {"name": "swish_105", "trainable": true}, "inbound_nodes": [[["batch_normalization_105", 0, 0, {}]]]}, {"name": "lambda_36", "class_name": "Lambda", "config": {"name": "lambda_36", "trainable": true, "function": ["4wEAAAAAAAAAAQAAAAUAAAATAAAAcxAAAAB0AGoBfACIAGQBZAKNA1MAKQNOVCkC2gRheGlz2ghr\nZWVwZGltcykC2gFL2gRtZWFuKQHaAWEpAdoMc3BhdGlhbF9kaW1zqQD6WC9rYWdnbGUvaW5wdXQv\nZWZmaWNpZW50bmV0L2VmZmljaWVudG5ldC1tYXN0ZXIvZWZmaWNpZW50bmV0LW1hc3Rlci9lZmZp\nY2llbnRuZXQvbW9kZWwucHnaCDxsYW1iZGE+XwAAAHMAAAAA\n", null, [[1, 2]]], "function_type": "lambda", "output_shape": null, "output_shape_type": "raw", "arguments": {}}, "inbound_nodes": [[["swish_105", 0, 0, {}]]]}, {"name": "conv2d_140", "class_name": "Conv2D", "config": {"name": "conv2d_140", "trainable": true, "filters": 76, "kernel_size": [1, 1], "strides": [1, 1], "padding": "same", "data_format": "channels_last", "dilation_rate": [1, 1], "activation": "linear", "use_bias": true, "kernel_initializer": {"class_name": "EfficientConv2DKernelInitializer", "config": {}}, "bias_initializer": {"class_name": "Zeros", "config": {}}, "kernel_regularizer": null, "bias_regularizer": null, "activity_regularizer": null, "kernel_constraint": null, "bias_constraint": null}, "inbound_nodes": [[["lambda_36", 0, 0, {}]]]}, {"name": "swish_106", "class_name": "Swish", "config": {"name": "swish_106", "trainable": true}, "inbound_nodes": [[["conv2d_140", 0, 0, {}]]]}, {"name": "conv2d_141", "class_name": "Conv2D", "config": {"name": "conv2d_141", "trainable": true, "filters": 1824, "kernel_size": [1, 1], "strides": [1, 1], "padding": "same", "data_format": "channels_last", "dilation_rate": [1, 1], "activation": "linear", "use_bias": true, "kernel_initializer": {"class_name": "EfficientConv2DKernelInitializer", "config": {}}, "bias_initializer": {"class_name": "Zeros", "config": {}}, "kernel_regularizer": null, "bias_regularizer": null, "activity_regularizer": null, "kernel_constraint": null, "bias_constraint": null}, "inbound_nodes": [[["swish_106", 0, 0, {}]]]}, {"name": "activation_36", "class_name": "Activation", "config": {"name": "activation_36", "trainable": true, "activation": "sigmoid"}, "inbound_nodes": [[["conv2d_141", 0, 0, {}]]]}, {"name": "multiply_36", "class_name": "Multiply", "config": {"name": "multiply_36", "trainable": true}, "inbound_nodes": [[["activation_36", 0, 0, {}], ["swish_105", 0, 0, {}]]]}, {"name": "conv2d_142", "class_name": "Conv2D", "config": {"name": "conv2d_142", "trainable": true, "filters": 304, "kernel_size": [1, 1], "strides": [1, 1], "padding": "same", "data_format": "channels_last", "dilation_rate": [1, 1], "activation": "linear", "use_bias": false, "kernel_initializer": {"class_name": "EfficientConv2DKernelInitializer", "config": {}}, "bias_initializer": {"class_name": "Zeros", "config": {}}, "kernel_regularizer": null, "bias_regularizer": null, "activity_regularizer": null, "kernel_constraint": null, "bias_constraint": null}, "inbound_nodes": [[["multiply_36", 0, 0, {}]]]}, {"name": "group_normalization_106", "class_name": "GroupNormalization", "config": {"name": "group_normalization_106", "trainable": true, "groups": 32, "axis": -1, "epsilon": 1e-05, "center": true, "scale": true, "beta_initializer": {"class_name": "Zeros", "config": {}}, "gamma_initializer": {"class_name": "Ones", "config": {}}, "beta_regularizer": null, "gamma_regularizer": null, "beta_constraint": null, "gamma_constraint": null}, "inbound_nodes": []}, {"name": "drop_connect_30", "class_name": "DropConnect", "config": {"name": "drop_connect_30", "trainable": true, "drop_connect_rate": 0.45}, "inbound_nodes": [[["batch_normalization_106", 0, 0, {}]]]}, {"name": "add_30", "class_name": "Add", "config": {"name": "add_30", "trainable": true}, "inbound_nodes": [[["drop_connect_30", 0, 0, {}], ["add_29", 0, 0, {}]]]}, {"name": "conv2d_143", "class_name": "Conv2D", "config": {"name": "conv2d_143", "trainable": true, "filters": 1824, "kernel_size": [1, 1], "strides": [1, 1], "padding": "same", "data_format": "channels_last", "dilation_rate": [1, 1], "activation": "linear", "use_bias": false, "kernel_initializer": {"class_name": "EfficientConv2DKernelInitializer", "config": {}}, "bias_initializer": {"class_name": "Zeros", "config": {}}, "kernel_regularizer": null, "bias_regularizer": null, "activity_regularizer": null, "kernel_constraint": null, "bias_constraint": null}, "inbound_nodes": [[["add_30", 0, 0, {}]]]}, {"name": "group_normalization_107", "class_name": "GroupNormalization", "config": {"name": "group_normalization_107", "trainable": true, "groups": 32, "axis": -1, "epsilon": 1e-05, "center": true, "scale": true, "beta_initializer": {"class_name": "Zeros", "config": {}}, "gamma_initializer": {"class_name": "Ones", "config": {}}, "beta_regularizer": null, "gamma_regularizer": null, "beta_constraint": null, "gamma_constraint": null}, "inbound_nodes": []}, {"name": "swish_107", "class_name": "Swish", "config": {"name": "swish_107", "trainable": true}, "inbound_nodes": [[["batch_normalization_107", 0, 0, {}]]]}, {"name": "depthwise_conv2d_37", "class_name": "DepthwiseConv2D", "config": {"name": "depthwise_conv2d_37", "trainable": true, "kernel_size": [3, 3], "strides": [1, 1], "padding": "same", "data_format": "channels_last", "dilation_rate": [1, 1], "activation": "linear", "use_bias": false, "bias_initializer": {"class_name": "Zeros", "config": {}}, "bias_regularizer": null, "activity_regularizer": null, "bias_constraint": null, "depth_multiplier": 1, "depthwise_initializer": {"class_name": "EfficientConv2DKernelInitializer", "config": {}}, "depthwise_regularizer": null, "depthwise_constraint": null}, "inbound_nodes": [[["swish_107", 0, 0, {}]]]}, {"name": "group_normalization_108", "class_name": "GroupNormalization", "config": {"name": "group_normalization_108", "trainable": true, "groups": 32, "axis": -1, "epsilon": 1e-05, "center": true, "scale": true, "beta_initializer": {"class_name": "Zeros", "config": {}}, "gamma_initializer": {"class_name": "Ones", "config": {}}, "beta_regularizer": null, "gamma_regularizer": null, "beta_constraint": null, "gamma_constraint": null}, "inbound_nodes": []}, {"name": "swish_108", "class_name": "Swish", "config": {"name": "swish_108", "trainable": true}, "inbound_nodes": [[["batch_normalization_108", 0, 0, {}]]]}, {"name": "lambda_37", "class_name": "Lambda", "config": {"name": "lambda_37", "trainable": true, "function": ["4wEAAAAAAAAAAQAAAAUAAAATAAAAcxAAAAB0AGoBfACIAGQBZAKNA1MAKQNOVCkC2gRheGlz2ghr\nZWVwZGltcykC2gFL2gRtZWFuKQHaAWEpAdoMc3BhdGlhbF9kaW1zqQD6WC9rYWdnbGUvaW5wdXQv\nZWZmaWNpZW50bmV0L2VmZmljaWVudG5ldC1tYXN0ZXIvZWZmaWNpZW50bmV0LW1hc3Rlci9lZmZp\nY2llbnRuZXQvbW9kZWwucHnaCDxsYW1iZGE+XwAAAHMAAAAA\n", null, [[1, 2]]], "function_type": "lambda", "output_shape": null, "output_shape_type": "raw", "arguments": {}}, "inbound_nodes": [[["swish_108", 0, 0, {}]]]}, {"name": "conv2d_144", "class_name": "Conv2D", "config": {"name": "conv2d_144", "trainable": true, "filters": 76, "kernel_size": [1, 1], "strides": [1, 1], "padding": "same", "data_format": "channels_last", "dilation_rate": [1, 1], "activation": "linear", "use_bias": true, "kernel_initializer": {"class_name": "EfficientConv2DKernelInitializer", "config": {}}, "bias_initializer": {"class_name": "Zeros", "config": {}}, "kernel_regularizer": null, "bias_regularizer": null, "activity_regularizer": null, "kernel_constraint": null, "bias_constraint": null}, "inbound_nodes": [[["lambda_37", 0, 0, {}]]]}, {"name": "swish_109", "class_name": "Swish", "config": {"name": "swish_109", "trainable": true}, "inbound_nodes": [[["conv2d_144", 0, 0, {}]]]}, {"name": "conv2d_145", "class_name": "Conv2D", "config": {"name": "conv2d_145", "trainable": true, "filters": 1824, "kernel_size": [1, 1], "strides": [1, 1], "padding": "same", "data_format": "channels_last", "dilation_rate": [1, 1], "activation": "linear", "use_bias": true, "kernel_initializer": {"class_name": "EfficientConv2DKernelInitializer", "config": {}}, "bias_initializer": {"class_name": "Zeros", "config": {}}, "kernel_regularizer": null, "bias_regularizer": null, "activity_regularizer": null, "kernel_constraint": null, "bias_constraint": null}, "inbound_nodes": [[["swish_109", 0, 0, {}]]]}, {"name": "activation_37", "class_name": "Activation", "config": {"name": "activation_37", "trainable": true, "activation": "sigmoid"}, "inbound_nodes": [[["conv2d_145", 0, 0, {}]]]}, {"name": "multiply_37", "class_name": "Multiply", "config": {"name": "multiply_37", "trainable": true}, "inbound_nodes": [[["activation_37", 0, 0, {}], ["swish_108", 0, 0, {}]]]}, {"name": "conv2d_146", "class_name": "Conv2D", "config": {"name": "conv2d_146", "trainable": true, "filters": 512, "kernel_size": [1, 1], "strides": [1, 1], "padding": "same", "data_format": "channels_last", "dilation_rate": [1, 1], "activation": "linear", "use_bias": false, "kernel_initializer": {"class_name": "EfficientConv2DKernelInitializer", "config": {}}, "bias_initializer": {"class_name": "Zeros", "config": {}}, "kernel_regularizer": null, "bias_regularizer": null, "activity_regularizer": null, "kernel_constraint": null, "bias_constraint": null}, "inbound_nodes": [[["multiply_37", 0, 0, {}]]]}, {"name": "group_normalization_109", "class_name": "GroupNormalization", "config": {"name": "group_normalization_109", "trainable": true, "groups": 32, "axis": -1, "epsilon": 1e-05, "center": true, "scale": true, "beta_initializer": {"class_name": "Zeros", "config": {}}, "gamma_initializer": {"class_name": "Ones", "config": {}}, "beta_regularizer": null, "gamma_regularizer": null, "beta_constraint": null, "gamma_constraint": null}, "inbound_nodes": []}, {"name": "conv2d_147", "class_name": "Conv2D", "config": {"name": "conv2d_147", "trainable": true, "filters": 3072, "kernel_size": [1, 1], "strides": [1, 1], "padding": "same", "data_format": "channels_last", "dilation_rate": [1, 1], "activation": "linear", "use_bias": false, "kernel_initializer": {"class_name": "EfficientConv2DKernelInitializer", "config": {}}, "bias_initializer": {"class_name": "Zeros", "config": {}}, "kernel_regularizer": null, "bias_regularizer": null, "activity_regularizer": null, "kernel_constraint": null, "bias_constraint": null}, "inbound_nodes": [[["batch_normalization_109", 0, 0, {}]]]}, {"name": "group_normalization_110", "class_name": "GroupNormalization", "config": {"name": "group_normalization_110", "trainable": true, "groups": 32, "axis": -1, "epsilon": 1e-05, "center": true, "scale": true, "beta_initializer": {"class_name": "Zeros", "config": {}}, "gamma_initializer": {"class_name": "Ones", "config": {}}, "beta_regularizer": null, "gamma_regularizer": null, "beta_constraint": null, "gamma_constraint": null}, "inbound_nodes": []}, {"name": "swish_110", "class_name": "Swish", "config": {"name": "swish_110", "trainable": true}, "inbound_nodes": [[["batch_normalization_110", 0, 0, {}]]]}, {"name": "depthwise_conv2d_38", "class_name": "DepthwiseConv2D", "config": {"name": "depthwise_conv2d_38", "trainable": true, "kernel_size": [3, 3], "strides": [1, 1], "padding": "same", "data_format": "channels_last", "dilation_rate": [1, 1], "activation": "linear", "use_bias": false, "bias_initializer": {"class_name": "Zeros", "config": {}}, "bias_regularizer": null, "activity_regularizer": null, "bias_constraint": null, "depth_multiplier": 1, "depthwise_initializer": {"class_name": "EfficientConv2DKernelInitializer", "config": {}}, "depthwise_regularizer": null, "depthwise_constraint": null}, "inbound_nodes": [[["swish_110", 0, 0, {}]]]}, {"name": "group_normalization_111", "class_name": "GroupNormalization", "config": {"name": "group_normalization_111", "trainable": true, "groups": 32, "axis": -1, "epsilon": 1e-05, "center": true, "scale": true, "beta_initializer": {"class_name": "Zeros", "config": {}}, "gamma_initializer": {"class_name": "Ones", "config": {}}, "beta_regularizer": null, "gamma_regularizer": null, "beta_constraint": null, "gamma_constraint": null}, "inbound_nodes": []}, {"name": "swish_111", "class_name": "Swish", "config": {"name": "swish_111", "trainable": true}, "inbound_nodes": [[["batch_normalization_111", 0, 0, {}]]]}, {"name": "lambda_38", "class_name": "Lambda", "config": {"name": "lambda_38", "trainable": true, "function": ["4wEAAAAAAAAAAQAAAAUAAAATAAAAcxAAAAB0AGoBfACIAGQBZAKNA1MAKQNOVCkC2gRheGlz2ghr\nZWVwZGltcykC2gFL2gRtZWFuKQHaAWEpAdoMc3BhdGlhbF9kaW1zqQD6WC9rYWdnbGUvaW5wdXQv\nZWZmaWNpZW50bmV0L2VmZmljaWVudG5ldC1tYXN0ZXIvZWZmaWNpZW50bmV0LW1hc3Rlci9lZmZp\nY2llbnRuZXQvbW9kZWwucHnaCDxsYW1iZGE+XwAAAHMAAAAA\n", null, [[1, 2]]], "function_type": "lambda", "output_shape": null, "output_shape_type": "raw", "arguments": {}}, "inbound_nodes": [[["swish_111", 0, 0, {}]]]}, {"name": "conv2d_148", "class_name": "Conv2D", "config": {"name": "conv2d_148", "trainable": true, "filters": 128, "kernel_size": [1, 1], "strides": [1, 1], "padding": "same", "data_format": "channels_last", "dilation_rate": [1, 1], "activation": "linear", "use_bias": true, "kernel_initializer": {"class_name": "EfficientConv2DKernelInitializer", "config": {}}, "bias_initializer": {"class_name": "Zeros", "config": {}}, "kernel_regularizer": null, "bias_regularizer": null, "activity_regularizer": null, "kernel_constraint": null, "bias_constraint": null}, "inbound_nodes": [[["lambda_38", 0, 0, {}]]]}, {"name": "swish_112", "class_name": "Swish", "config": {"name": "swish_112", "trainable": true}, "inbound_nodes": [[["conv2d_148", 0, 0, {}]]]}, {"name": "conv2d_149", "class_name": "Conv2D", "config": {"name": "conv2d_149", "trainable": true, "filters": 3072, "kernel_size": [1, 1], "strides": [1, 1], "padding": "same", "data_format": "channels_last", "dilation_rate": [1, 1], "activation": "linear", "use_bias": true, "kernel_initializer": {"class_name": "EfficientConv2DKernelInitializer", "config": {}}, "bias_initializer": {"class_name": "Zeros", "config": {}}, "kernel_regularizer": null, "bias_regularizer": null, "activity_regularizer": null, "kernel_constraint": null, "bias_constraint": null}, "inbound_nodes": [[["swish_112", 0, 0, {}]]]}, {"name": "activation_38", "class_name": "Activation", "config": {"name": "activation_38", "trainable": true, "activation": "sigmoid"}, "inbound_nodes": [[["conv2d_149", 0, 0, {}]]]}, {"name": "multiply_38", "class_name": "Multiply", "config": {"name": "multiply_38", "trainable": true}, "inbound_nodes": [[["activation_38", 0, 0, {}], ["swish_111", 0, 0, {}]]]}, {"name": "conv2d_150", "class_name": "Conv2D", "config": {"name": "conv2d_150", "trainable": true, "filters": 512, "kernel_size": [1, 1], "strides": [1, 1], "padding": "same", "data_format": "channels_last", "dilation_rate": [1, 1], "activation": "linear", "use_bias": false, "kernel_initializer": {"class_name": "EfficientConv2DKernelInitializer", "config": {}}, "bias_initializer": {"class_name": "Zeros", "config": {}}, "kernel_regularizer": null, "bias_regularizer": null, "activity_regularizer": null, "kernel_constraint": null, "bias_constraint": null}, "inbound_nodes": [[["multiply_38", 0, 0, {}]]]}, {"name": "group_normalization_112", "class_name": "GroupNormalization", "config": {"name": "group_normalization_112", "trainable": true, "groups": 32, "axis": -1, "epsilon": 1e-05, "center": true, "scale": true, "beta_initializer": {"class_name": "Zeros", "config": {}}, "gamma_initializer": {"class_name": "Ones", "config": {}}, "beta_regularizer": null, "gamma_regularizer": null, "beta_constraint": null, "gamma_constraint": null}, "inbound_nodes": []}, {"name": "drop_connect_31", "class_name": "DropConnect", "config": {"name": "drop_connect_31", "trainable": true, "drop_connect_rate": 0.47500000000000003}, "inbound_nodes": [[["batch_normalization_112", 0, 0, {}]]]}, {"name": "add_31", "class_name": "Add", "config": {"name": "add_31", "trainable": true}, "inbound_nodes": [[["drop_connect_31", 0, 0, {}], ["batch_normalization_109", 0, 0, {}]]]}, {"name": "conv2d_151", "class_name": "Conv2D", "config": {"name": "conv2d_151", "trainable": true, "filters": 3072, "kernel_size": [1, 1], "strides": [1, 1], "padding": "same", "data_format": "channels_last", "dilation_rate": [1, 1], "activation": "linear", "use_bias": false, "kernel_initializer": {"class_name": "EfficientConv2DKernelInitializer", "config": {}}, "bias_initializer": {"class_name": "Zeros", "config": {}}, "kernel_regularizer": null, "bias_regularizer": null, "activity_regularizer": null, "kernel_constraint": null, "bias_constraint": null}, "inbound_nodes": [[["add_31", 0, 0, {}]]]}, {"name": "group_normalization_113", "class_name": "GroupNormalization", "config": {"name": "group_normalization_113", "trainable": true, "groups": 32, "axis": -1, "epsilon": 1e-05, "center": true, "scale": true, "beta_initializer": {"class_name": "Zeros", "config": {}}, "gamma_initializer": {"class_name": "Ones", "config": {}}, "beta_regularizer": null, "gamma_regularizer": null, "beta_constraint": null, "gamma_constraint": null}, "inbound_nodes": []}, {"name": "swish_113", "class_name": "Swish", "config": {"name": "swish_113", "trainable": true}, "inbound_nodes": [[["batch_normalization_113", 0, 0, {}]]]}, {"name": "depthwise_conv2d_39", "class_name": "DepthwiseConv2D", "config": {"name": "depthwise_conv2d_39", "trainable": true, "kernel_size": [3, 3], "strides": [1, 1], "padding": "same", "data_format": "channels_last", "dilation_rate": [1, 1], "activation": "linear", "use_bias": false, "bias_initializer": {"class_name": "Zeros", "config": {}}, "bias_regularizer": null, "activity_regularizer": null, "bias_constraint": null, "depth_multiplier": 1, "depthwise_initializer": {"class_name": "EfficientConv2DKernelInitializer", "config": {}}, "depthwise_regularizer": null, "depthwise_constraint": null}, "inbound_nodes": [[["swish_113", 0, 0, {}]]]}, {"name": "group_normalization_114", "class_name": "GroupNormalization", "config": {"name": "group_normalization_114", "trainable": true, "groups": 32, "axis": -1, "epsilon": 1e-05, "center": true, "scale": true, "beta_initializer": {"class_name": "Zeros", "config": {}}, "gamma_initializer": {"class_name": "Ones", "config": {}}, "beta_regularizer": null, "gamma_regularizer": null, "beta_constraint": null, "gamma_constraint": null}, "inbound_nodes": []}, {"name": "swish_114", "class_name": "Swish", "config": {"name": "swish_114", "trainable": true}, "inbound_nodes": [[["batch_normalization_114", 0, 0, {}]]]}, {"name": "lambda_39", "class_name": "Lambda", "config": {"name": "lambda_39", "trainable": true, "function": ["4wEAAAAAAAAAAQAAAAUAAAATAAAAcxAAAAB0AGoBfACIAGQBZAKNA1MAKQNOVCkC2gRheGlz2ghr\nZWVwZGltcykC2gFL2gRtZWFuKQHaAWEpAdoMc3BhdGlhbF9kaW1zqQD6WC9rYWdnbGUvaW5wdXQv\nZWZmaWNpZW50bmV0L2VmZmljaWVudG5ldC1tYXN0ZXIvZWZmaWNpZW50bmV0LW1hc3Rlci9lZmZp\nY2llbnRuZXQvbW9kZWwucHnaCDxsYW1iZGE+XwAAAHMAAAAA\n", null, [[1, 2]]], "function_type": "lambda", "output_shape": null, "output_shape_type": "raw", "arguments": {}}, "inbound_nodes": [[["swish_114", 0, 0, {}]]]}, {"name": "conv2d_152", "class_name": "Conv2D", "config": {"name": "conv2d_152", "trainable": true, "filters": 128, "kernel_size": [1, 1], "strides": [1, 1], "padding": "same", "data_format": "channels_last", "dilation_rate": [1, 1], "activation": "linear", "use_bias": true, "kernel_initializer": {"class_name": "EfficientConv2DKernelInitializer", "config": {}}, "bias_initializer": {"class_name": "Zeros", "config": {}}, "kernel_regularizer": null, "bias_regularizer": null, "activity_regularizer": null, "kernel_constraint": null, "bias_constraint": null}, "inbound_nodes": [[["lambda_39", 0, 0, {}]]]}, {"name": "swish_115", "class_name": "Swish", "config": {"name": "swish_115", "trainable": true}, "inbound_nodes": [[["conv2d_152", 0, 0, {}]]]}, {"name": "conv2d_153", "class_name": "Conv2D", "config": {"name": "conv2d_153", "trainable": true, "filters": 3072, "kernel_size": [1, 1], "strides": [1, 1], "padding": "same", "data_format": "channels_last", "dilation_rate": [1, 1], "activation": "linear", "use_bias": true, "kernel_initializer": {"class_name": "EfficientConv2DKernelInitializer", "config": {}}, "bias_initializer": {"class_name": "Zeros", "config": {}}, "kernel_regularizer": null, "bias_regularizer": null, "activity_regularizer": null, "kernel_constraint": null, "bias_constraint": null}, "inbound_nodes": [[["swish_115", 0, 0, {}]]]}, {"name": "activation_39", "class_name": "Activation", "config": {"name": "activation_39", "trainable": true, "activation": "sigmoid"}, "inbound_nodes": [[["conv2d_153", 0, 0, {}]]]}, {"name": "multiply_39", "class_name": "Multiply", "config": {"name": "multiply_39", "trainable": true}, "inbound_nodes": [[["activation_39", 0, 0, {}], ["swish_114", 0, 0, {}]]]}, {"name": "conv2d_154", "class_name": "Conv2D", "config": {"name": "conv2d_154", "trainable": true, "filters": 512, "kernel_size": [1, 1], "strides": [1, 1], "padding": "same", "data_format": "channels_last", "dilation_rate": [1, 1], "activation": "linear", "use_bias": false, "kernel_initializer": {"class_name": "EfficientConv2DKernelInitializer", "config": {}}, "bias_initializer": {"class_name": "Zeros", "config": {}}, "kernel_regularizer": null, "bias_regularizer": null, "activity_regularizer": null, "kernel_constraint": null, "bias_constraint": null}, "inbound_nodes": [[["multiply_39", 0, 0, {}]]]}, {"name": "group_normalization_115", "class_name": "GroupNormalization", "config": {"name": "group_normalization_115", "trainable": true, "groups": 32, "axis": -1, "epsilon": 1e-05, "center": true, "scale": true, "beta_initializer": {"class_name": "Zeros", "config": {}}, "gamma_initializer": {"class_name": "Ones", "config": {}}, "beta_regularizer": null, "gamma_regularizer": null, "beta_constraint": null, "gamma_constraint": null}, "inbound_nodes": []}, {"name": "drop_connect_32", "class_name": "DropConnect", "config": {"name": "drop_connect_32", "trainable": true, "drop_connect_rate": 0.48750000000000004}, "inbound_nodes": [[["batch_normalization_115", 0, 0, {}]]]}, {"name": "add_32", "class_name": "Add", "config": {"name": "add_32", "trainable": true}, "inbound_nodes": [[["drop_connect_32", 0, 0, {}], ["add_31", 0, 0, {}]]]}, {"name": "conv2d_155", "class_name": "Conv2D", "config": {"name": "conv2d_155", "trainable": true, "filters": 2048, "kernel_size": [1, 1], "strides": [1, 1], "padding": "same", "data_format": "channels_last", "dilation_rate": [1, 1], "activation": "linear", "use_bias": false, "kernel_initializer": {"class_name": "EfficientConv2DKernelInitializer", "config": {}}, "bias_initializer": {"class_name": "Zeros", "config": {}}, "kernel_regularizer": null, "bias_regularizer": null, "activity_regularizer": null, "kernel_constraint": null, "bias_constraint": null}, "inbound_nodes": [[["add_32", 0, 0, {}]]]}, {"name": "group_normalization_116", "class_name": "GroupNormalization", "config": {"name": "group_normalization_116", "trainable": true, "groups": 32, "axis": -1, "epsilon": 1e-05, "center": true, "scale": true, "beta_initializer": {"class_name": "Zeros", "config": {}}, "gamma_initializer": {"class_name": "Ones", "config": {}}, "beta_regularizer": null, "gamma_regularizer": null, "beta_constraint": null, "gamma_constraint": null}, "inbound_nodes": []}, {"name": "swish_116", "class_name": "Swish", "config": {"name": "swish_116", "trainable": true}, "inbound_nodes": [[["batch_normalization_116", 0, 0, {}]]]}], "input_layers": [["input_1", 0, 0]], "output_layers": [["swish_116", 0, 0]]}}, {"class_name": "GlobalAveragePooling2D", "config": {"name": "global_average_pooling2d_1", "trainable": true, "data_format": "channels_last"}}, {"class_name": "Dropout", "config": {"name": "dropout_1", "trainable": true, "rate": 0.5, "noise_shape": null, "seed": null}}, {"class_name": "Dense", "config": {"name": "dense_1", "trainable": true, "units": 5, "activation": "elu", "use_bias": true, "kernel_initializer": {"class_name": "VarianceScaling", "config": {"scale": 1.0, "mode": "fan_avg", "distribution": "uniform", "seed": null}}, "bias_initializer": {"class_name": "Zeros", "config": {}}, "kernel_regularizer": null, "bias_regularizer": null, "activity_regularizer": null, "kernel_constraint": null, "bias_constraint": null}}, {"class_name": "Dense", "config": {"name": "dense_2", "trainable": true, "units": 1, "activation": "linear", "use_bias": true, "kernel_initializer": {"class_name": "VarianceScaling", "config": {"scale": 1.0, "mode": "fan_avg", "distribution": "uniform", "seed": null}}, "bias_initializer": {"class_name": "Zeros", "config": {}}, "kernel_regularizer": null, "bias_regularizer": null, "activity_regularizer": null, "kernel_constraint": null, "bias_constraint": null}}]}, "keras_version": "2.2.4", "backend": "tensorflow"}